Godot - Project Ares AI/models/model 2500 deaths/BotModel.pth (torch, 13665 bytes, 6 tensors)

fc.0.weight f4 [64, 6]
0	0xbebf7e54	-0.37401068
1	0xbeed4a8a	-0.4634593
2	0xbebb417b	-0.36573395
3	0xbfe5842e	-1.7930963
4	0x40048c2f	2.0710561
5	0xbf8da120	-1.1064796
6	0xbea09a35	-0.3136765
7	0x3d8303a0	0.06397176
8	0x3fb6f507	1.4293526
9	0x40b2ae4b	5.583776
10	0xc040a6c8	-3.0101795
11	0x3f5a496b	0.85268277
12	0xbee83854	-0.45355475
13	0xbe930015	-0.28711
14	0xbf0e764d	-0.5564926
15	0xc0246cdf	-2.569145
16	0x40d592c7	6.674167
17	0x3dfe70b5	0.12423841
18	0x3db9f9d0	0.09080851
19	0x3e9419d8	0.28925967
20	0xbe9c1c46	-0.3049032
21	0xbe66061e	-0.22463271
22	0x3e161284	0.146555
23	0x3cfe5e60	0.03105086
24	0xbdbad7e0	-0.09123206
25	0x3d5ccda8	0.053907067
26	0xbceeaed0	-0.029136091
27	0x3e13be58	0.14428079
28	0xbea3ba0d	-0.31977883
29	0xbe8144ed	-0.252479
30	0xbe24892f	-0.16067956
31	0x3eb32d1a	0.34995347
32	0x3f2164a8	0.63044214
33	0x3fe4cec9	1.7875606
34	0xc070eaed	-3.7643387
35	0xbfc311aa	-1.5239766
36	0xbeee16a7	-0.46501657
37	0xbf1b4a79	-0.6066051
38	0xbecbd6cc	-0.39812315
39	0xc0939bcf	-4.6127696
40	0x405eb25a	3.4796357
41	0xbf3adafa	-0.7299038
42	0x3f3990f4	0.72486806
43	0x3f09052d	0.5352352
44	0xbf11750c	-0.56819224
45	0xc086fa94	-4.218088
46	0x408beb2f	4.372459
47	0x3f3ae523	0.73005885
48	0x4084db4d	4.15177
49	0x3f91dc9d	1.1395451
50	0xbf0545b1	-0.52059466
51	0xc0622590	-3.5335426
52	0x40303288	2.7530842
53	0x3f836350	1.0264683
54	0x3de59116	0.112093136
55	0xbd40eeb1	-0.047102634
56	0x3dfd0715	0.123548664
57	0xbf707732	-0.9393188
58	0x401d81c0	2.4610443
59	0xbdea389d	-0.114365794
60	0xbf28345a	-0.6570488
61	0xbe893296	-0.26796407
62	0x3f2905a8	0.66024256
63	0x3f9dfe7a	1.2343285
64	0xc044634a	-3.0685601
65	0xbfca9eb9	-1.5829688
66	0x3f3b3629	0.73129517
67	0xbc696ff5	-0.014247884
68	0xbe45ab00	-0.19303513
69	0xc08037c3	-4.006807
70	0x408a7261	4.3264623
71	0xbdfb2bb7	-0.12264197
72	0x3ea2d8a6	0.31805915
73	0x3e9789d2	0.29597336
74	0x3e0c42d4	0.13697368
75	0xbe384696	-0.17995676
76	0xbea436d7	-0.3207309
77	0xbe0efd54	-0.13963825
78	0xbf163eb5	-0.58689433
79	0xbe985ccf	-0.29758307
80	0x3f3fba15	0.74893314
81	0x3fdf3a22	1.7439616
82	0xc079fa20	-3.9058914
83	0xbfd7e430	-1.6866512
84	0x3e52c450	0.205827
85	0x3dcdf85a	0.10057135
86	0x3d9726f7	0.07380479
87	0xbeea1c29	-0.4572461
88	0x3fd6d85e	1.678478
89	0xbf219899	-0.6312347
90	0x3eb0c438	0.34524703
91	0xbdf74d1c	-0.12075254
92	0x3cdb5970	0.026776046
93	0xbe0d5b1e	-0.1380429
94	0xbe8fd4e6	-0.28092116
95	0xbe5e843d	-0.21730132
96	0xbe620738	-0.22073066
97	0x3e255947	0.16147338
98	0x3f298c3f	0.66229624
99	0x3f844004	1.0332036
100	0xc0341b3a	-2.8141618
101	0xbf9c69d3	-1.2219795
102	0xbedf5940	-0.4362278
103	0xbdb1a8a5	-0.086747445
104	0x3e2d37ae	0.16915771
105	0x401ff32e	2.4992175
106	0xc07d02f8	-3.9533062
107	0xbf89a46c	-1.0753303
108	0x3ea4acc0	0.32163048
109	0x3e1e67f0	0.15469337
110	0x3cba1230	0.02271375
111	0xbea825e3	-0.32841405
112	0x3e058ab8	0.13041198
113	0x3eb9f434	0.36319125
114	0x3ee8114c	0.45325696
115	0xbe44f9e8	-0.19235957
116	0xbf23765f	-0.63852495
117	0xc06fb24c	-3.7452574
118	0x40b3420f	5.601814
119	0x3e7d4e68	0.24736941
120	0xbe67e4ff	-0.22645949
121	0x3efb75c8	0.49113297
122	0x3e022886	0.12710771
123	0x3c5cb8db	0.013471807
124	0xbf9e6b7b	-1.237655
125	0xbf58618c	-0.84523845
126	0x3df0ed43	0.11764004
127	0x3ee07737	0.43840954
128	0x3e4525ce	0.19252703
129	0x3e8978c0	0.26849937
130	0x3ef54650	0.47905207
131	0x3e2a7d66	0.16649398
132	0xbd60a9fc	-0.05484961
133	0xbd47d098	-0.048782915
134	0x3e50c96e	0.2038934
135	0x3f6ec472	0.932685
136	0xc00f9c35	-2.2439091
137	0xbf7f4ec8	-0.99729586
138	0x3c6f6aba	0.014612848
139	0xbc3b240f	-0.011422171
140	0x3d17b5d5	0.037038643
141	0xbea46ce7	-0.32114336
142	0x40b9139c	5.7836437
143	0xc0d8c336	-6.7738295
144	0xbef3a4ef	-0.47586772
145	0x3e3bd1b1	0.1834171
146	0x3f88e5d4	1.0695138
147	0x402fec52	2.7487988
148	0xc09d0ec3	-4.908052
149	0xbf88ae6c	-1.0678229
150	0xbf83dfc5	-1.0302664
151	0xbe684a14	-0.22684509
152	0x3f941063	1.1567501
153	0x4029c1a1	2.6524432
154	0xc09fee13	-4.997812
155	0xbf8e13cb	-1.109979
156	0x3f433d7a	0.7626568
157	0xbbd1d7ae	-0.006403885
158	0xbefa2597	-0.48856804
159	0xc08c0028	-4.375019
160	0x409cad34	4.896143
161	0x3e207ec8	0.15673363
162	0xbec3efa2	-0.38268763
163	0xbc717880	-0.014738202
164	0x3b9e0200	0.0048220158
165	0x3eb34faa	0.35021716
166	0xbe953320	-0.29140568
167	0xbda93410	-0.08261883
168	0xbf593a29	-0.8485437
169	0xbe145b86	-0.14488038
170	0x3f754410	0.9580698
171	0x3fdb5ae7	1.7137116
172	0xc08c94cd	-4.393164
173	0xbfb61865	-1.4226195
174	0xbe26a2bf	-0.1627302
175	0x3eb873ae	0.36025757
176	0xbd2133b0	-0.039355934
177	0xbeb24f9a	-0.34826356
178	0xbecd1e9a	-0.4006241
179	0x3da2c5f4	0.07947913
180	0xbce80ae0	-0.028325498
181	0x3e8ebfee	0.27880806
182	0xbdd13144	-0.10214475
183	0x3cdb6540	0.026781678
184	0xbd13d308	-0.036089927
185	0x3e3cb634	0.1842888
186	0xbeae9f4f	-0.34105918
187	0x3ef78c9c	0.48349464
188	0x3e28b138	0.16473854
189	0x3f8801bd	1.062553
190	0xc0149f39	-2.3222182
191	0xbf7b64b8	-0.9820056
192	0x3f39b3f2	0.725402
193	0xbea799d0	-0.32734537
194	0xbf0abd02	-0.54194653
195	0xc0848a3c	-4.1418743
196	0x408cf93e	4.405425
197	0xbe5f4fe0	-0.21807814
198	0xbf01397c	-0.5047834
199	0xbe81c756	-0.25347394
200	0xbee9b05a	-0.45642358
201	0xc02c42ba	-2.6915727
202	0x40df9d1b	6.987928
203	0x3df56f2f	0.11984097
204	0x3e197f7c	0.14990038
205	0xbd598358	-0.053103775
206	0xbe52e185	-0.20593841
207	0x3d79a6b8	0.06095001
208	0xbda9ccc8	-0.08291012
209	0x3ec4b8ae	0.3842215
210	0xbebab7aa	-0.3646825
211	0x3ef7997f	0.48359296
212	0x3ea66589	0.3249934
213	0x3e702225	0.23450525
214	0xbf7778be	-0.9666861
215	0xbf763b1d	-0.9618395
216	0xbf17e582	-0.59334576
217	0x3e430c6f	0.19047712
218	0x3e9aa0d9	0.30200842
219	0x3f534c3e	0.8253821
220	0xc04d0a22	-3.2037435
221	0xbf5a91dc	-0.85378814
222	0xbede5317	-0.43422768
223	0xbd9c32f6	-0.076269075
224	0x3f93a59b	1.1534914
225	0x40bbd857	5.8701587
226	0xc0296641	-2.646866
227	0x3f0f6f0b	0.56028813
228	0x3f4e1822	0.80505574
229	0x3e5b10ad	0.2139308
230	0xbf1e10ca	-0.6174437
231	0xc087c5f1	-4.242913
232	0x409c105c	4.876997
233	0x3eaeb9e6	0.34126204
234	0xbf4a3ee8	-0.7900224
235	0x3eda8700	0.42681122
236	0x3f65bd78	0.8974223
237	0x3fdbf8c9	1.7185298
238	0xc082934f	-4.080482
239	0xbfe7d644	-1.8112264
240	0x3e8ffebc	0.28124034
241	0xbb669580	-0.0035184324
242	0xbea1bf1c	-0.31591117
243	0x3de388d0	0.11110079
244	0x3e413db0	0.18871188
245	0x3e0f4b3c	0.13993543
246	0x3e8fe164	0.28101647
247	0xbeb3b1be	-0.35096544
248	0xbeb8f251	-0.36122373
249	0xbd20a040	-0.039215326
250	0x3e6b827c	0.22998995
251	0x3dde6d50	0.108606935
252	0x3f8190df	1.0122336
253	0xbe8e163a	-0.27751333
254	0xbf09f0cc	-0.5388305
255	0xc08a5d34	-4.3238773

fc.0.bias f4 [64]
0	0x3fb06bbd	1.3782879
1	0xbeeaeb8d	-0.45882836
2	0x3f8ad881	1.0847322
3	0xbe7df7c0	-0.2480154
4	0xbe8f71dc	-0.28016555
5	0x3fcde6b1	1.6086026
6	0x3f99414b	1.1973051
7	0x3fac0578	1.3439169
8	0x3f5165d6	0.81796014
9	0x3fb43652	1.4079077
10	0x3fc6c1a2	1.5527842
11	0x3f8c3b71	1.095564
12	0xbed0f3f9	-0.40811136
13	0x3fe308d5	1.773707
14	0x3fc27906	1.5193183
15	0xbea5ddff	-0.32395932
16	0x3fdbb504	1.7164617
17	0x3fb25838	1.3933172
18	0xbe875b15	-0.26436678
19	0x3f94681c	1.1594272
20	0x3fcc5249	1.5962611
21	0xbeb41321	-0.35170844
22	0x3fdfe2da	1.7491105
23	0x3d1582cb	0.036501687
24	0x3fd00115	1.625033
25	0x3fabe593	1.3429435
26	0x3faee037	1.3662175
27	0xbe685843	-0.22689919
28	0x3fc6f5ef	1.5543803
29	0xbe995d4e	-0.29953998
30	0xbe875b80	-0.26436996
31	0x3fe48c2d	1.7855278
32	0x3fa8dec7	1.3192986
33	0x3f812712	1.0090048
34	0xbe91c1b4	-0.28468096
35	0x3fd7055f	1.6798514
36	0x3fe80628	1.8126879
37	0xbf2cc739	-0.6749149
38	0x3fbc1b4b	1.4695829
39	0x3fdc0a1e	1.7190588
40	0xbe3120b7	-0.17297636
41	0xbeaa19ec	-0.33222902
42	0x3faa6cd9	1.3314468
43	0x3fcdf88c	1.6091475
44	0x3fc83abd	1.5642926
45	0xbe97fedc	-0.2968663
46	0x3fb547bc	1.4162517
47	0x3fc3c58e	1.5294664
48	0x3fe90f5b	1.8207811
49	0x3fd7d06a	1.6860478
50	0xbea2975a	-0.31756097
51	0xbe8659e4	-0.26240456
52	0xbeacbb33	-0.33736572
53	0x3fa82efa	1.3139336
54	0x3efc9e81	0.4933968
55	0x3fbe6252	1.4873755
56	0x3fc74a77	1.55696
57	0x3ecbb064	0.39783013
58	0xbe60b12a	-0.21942583
59	0x3f997b9e	1.199085
60	0x3fb3202b	1.3994192
61	0x3fe23055	1.7671
62	0xbddc7be0	-0.10765815
63	0xbe8c7af1	-0.27437547

fc.2.weight f4 [32, 64]
0	0x3fe8d7af	1.8190821
1	0xbf940834	-1.1565003
2	0x3f9c9760	1.2233696
3	0xbd3cc3cc	-0.046085164
4	0x3d1f63b4	0.038913444
5	0x3f9da161	1.2314874
6	0x3fc016cc	1.5006957
7	0x3fa42496	1.2823665
8	0x3f7a2ccd	0.9772461
9	0x3f99dc74	1.2020402
10	0x3f8cb563	1.0992855
11	0x3f7a1ca9	0.9769998
12	0x3d954fbe	0.072906
13	0x3f94e0fa	1.1631157
14	0x3fa47b4a	1.2850125
15	0xbd7099b8	-0.058740348
16	0x3f8ce0b3	1.1006073
17	0x3fcdda48	1.6082239
18	0x3defab10	0.117025495
19	0x3fbd3b4f	1.4783725
20	0x3fb30bbb	1.3987955
21	0x3e500893	0.20315771
22	0x3fa3b277	1.2788838
23	0xc0d57c09	-6.671391
24	0x3f6a6bbd	0.91570646
25	0x3f840db5	1.0316683
26	0x3fb29483	1.3951572
27	0xbd8cc016	-0.06872575
28	0x3f95ba88	1.169755
29	0xbd97faee	-0.07420908
30	0x3da96c6e	0.082726344
31	0x3f976877	1.1828755
32	0x3fb2fbb7	1.3983067
33	0x3f972a5f	1.1809806
34	0x3ca02640	0.019549489
35	0x3fa4bfd3	1.287104
36	0x3fb62748	1.4230738
37	0xc00ae7c0	-2.170395
38	0x3fa69a61	1.3015863
39	0x3f89250b	1.071443
40	0xbd8d9db0	-0.06914842
41	0x3d93e632	0.07221641
42	0x3fb6abca	1.4271176
43	0x3fa371e3	1.276913
44	0x3fb81a99	1.4383117
45	0xbdfcbaa4	-0.123402864
46	0x3fc6382a	1.548589
47	0x3f8d0175	1.101607
48	0x3f991f3d	1.1962658
49	0x3f95427c	1.1660914
50	0xbdd8e8a8	-0.10591251
51	0x3d1c5c64	0.038174048
52	0x3dda4510	0.10657704
53	0x3f93183a	1.1491768
54	0x3fe8c3c8	1.8184748
55	0x3f8f1ad1	1.1180059
56	0x3f83d812	1.0300314
57	0xbdb817a9	-0.08988888
58	0xba9c2780	-0.0011913627
59	0x3faabd18	1.3338957
60	0x3f8cea5a	1.1009018
61	0x3fa896b8	1.3170996
62	0x3d6b1eac	0.057402298
63	0x3da02fff	0.078216545
64	0x3dd515a0	0.10404515
65	0x3dd57f22	0.10424639
66	0x3d8f3d07	0.06994062
67	0xbdaa6076	-0.0831918
68	0x3d7df55c	0.06200157
69	0xbcdd50db	-0.027016094
70	0x3dd3bcee	0.1033877
71	0x3cd1f952	0.02563158
72	0xbdaf9f62	-0.08575322
73	0xbd938ee1	-0.07204986
74	0xbd3185e1	-0.043340567
75	0x3d5672be	0.05235552
76	0xbc06ba40	-0.008223116
77	0xbd0faeeb	-0.035078924
78	0xbdb9df42	-0.09075786
79	0xbdf77248	-0.12082344
80	0xbdf81018	-0.12112445
81	0xbd04404c	-0.03228788
82	0x3d842ac8	0.064534724
83	0xbac5915f	-0.0015073231
84	0x3d68dfd0	0.05685407
85	0x3d7c37bc	0.06157659
86	0xbccb7285	-0.02483488
87	0x3cc74bb0	0.024328083
88	0xbd6e7115	-0.058213312
89	0xbd142e8d	-0.036177207
90	0xbb1e2419	-0.0024130403
91	0xbda5d97a	-0.08098121
92	0xbd816e0e	-0.063198194
93	0xbdcf3d52	-0.10119118
94	0xbd57ff2c	-0.052733585
95	0xbc8d016d	-0.017212594
96	0x3db92c56	0.090416595
97	0x3d9f0744	0.07765058
98	0x3de8f6e6	0.11375217
99	0x3bd52165	0.006504225
100	0x3cefe64b	0.029284617
101	0x3dbb64b0	0.09150064
102	0x3cdc2ab7	0.026875837
103	0x3d4a6122	0.04940904
104	0x3ccc47c0	0.024936557
105	0x3c04b1e0	0.008099049
106	0x3d95e98b	0.073199354
107	0x3d279a25	0.040918488
108	0x3d427be4	0.047481433
109	0x3c354490	0.01106371
110	0xbd472884	-0.048622623
111	0x3b57e1ca	0.0032940977
112	0xbd83028b	-0.063969694
113	0xb968f2ff	-0.00022215767
114	0xbdaf1516	-0.08548944
115	0x3d193f58	0.037413925
116	0x3d96fa08	0.073719084
117	0xbdb0491c	-0.086076945
118	0xbda70a1a	-0.081562236
119	0xbcfb9b86	-0.030713808
120	0xbd896d6f	-0.06710326
121	0xbd85ecc0	-0.06539297
122	0xbdb47446	-0.0881124
123	0xbbbdd51f	-0.0057932283
124	0x3de08a89	0.109639235
125	0x3d3d1b0e	0.04616838
126	0x3c8e3d50	0.01736322
127	0xbd4baf94	-0.04972799
128	0x3fe4a48f	1.7862719
129	0xbf9a1543	-1.2037739
130	0x3f98d827	1.1940964
131	0x3dbdd5b2	0.09269275
132	0xbd9f0748	-0.07765061
133	0x3fa03319	1.2515594
134	0x3fb5a9f3	1.4192489
135	0x3fb2efd2	1.3979437
136	0x3f7f1636	0.99643266
137	0x3f837c6e	1.0272348
138	0x3f9e46a3	1.2365307
139	0x3f71780e	0.94323814
140	0xbdfccde8	-0.12343961
141	0x3f8fe0a4	1.124043
142	0x3f8b71bf	1.0894088
143	0xbbba47e0	-0.0056848377
144	0x3f9df1d0	1.233942
145	0x3fc73cd0	1.5565434
146	0xbdbe69e8	-0.09297544
147	0x3faa71cd	1.3315979
148	0x3fac0357	1.3438519
149	0x3df87795	0.121321835
150	0x3fa688e7	1.3010529
151	0xc0d849f4	-6.7590275
152	0x3f844c60	1.0335808
153	0x3f86bf61	1.0527154
154	0x3f9ffae7	1.2498444
155	0xbc8a61d0	-0.016892344
156	0x3f8113c9	1.0084163
157	0x3cd38d40	0.02582419
158	0x3d831178	0.06399816
159	0x3fa04aa4	1.2522779
160	0x3fb63db0	1.4237576
161	0x3f92947c	1.1451564
162	0xbd77490c	-0.060372397
163	0x3f98cc0d	1.1937271
164	0x3fb098bd	1.3796612
165	0xc0239807	-2.556154
166	0x3fb8461c	1.4396396
167	0x3f9bcfbe	1.2172773
168	0xbdf7c636	-0.120983526
169	0xbd8eecec	-0.06978783
170	0x3fb38b05	1.40268
171	0x3f8ffe67	1.1249512
172	0x3fc25296	1.5181453
173	0xbd603ddc	-0.054746494
174	0x3fd67ed4	1.6757455
175	0x3f9a2178	1.2041464
176	0x3f9e3fe6	1.236325
177	0x3f884a9e	1.0647771
178	0xbb4da380	-0.0031377971
179	0x3deef27c	0.11667344
180	0xbc2053d0	-0.009785607
181	0x3fa6d31a	1.3033173
182	0x3fd80e12	1.6879294
183	0x3f866faf	1.0502833
184	0x3f9a5895	1.2058283
185	0xbe6581cd	-0.22412796
186	0xbd8a7b1e	-0.06761764
187	0x3fb00acf	1.3753299
188	0x3f6c6a2d	0.9234951
189	0x3f9163c4	1.1358571
190	0x3db0d192	0.08633722
191	0x3db25504	0.08707622
192	0xbcf6280a	-0.030048389
193	0xbdee349b	-0.116311274
194	0x3dae8054	0.085205704
195	0xbcca4910	-0.024693042
196	0xbdbaf514	-0.09128776
197	0x3cd4fdf8	0.026000008
198	0xbdc8528e	-0.09781371
199	0x3dd3e6c9	0.10346753
200	0xbd9047a0	-0.070449114
201	0x3da9b53b	0.0828652
202	0xbe035728	-0.12826216
203	0x3d8d06fb	0.06886097
204	0xb87ab000	-5.9768558e-05
205	0xbba1f6ea	-0.0049427645
206	0xbd902e91	-0.07040132
207	0x3d9d885c	0.07692024
208	0x3d8b4660	0.06800532
209	0xbd1bb8c0	-0.03801799
210	0x3cfe7d68	0.031065658
211	0x3d4fedec	0.05076401
212	0xbdda1071	-0.10647667
213	0xbceaa230	-0.02864179
214	0x3ce1bd1b	0.027555993
215	0x3d639d9c	0.05557023
216	0xbe023f4f	-0.12719463
217	0xbdbd3648	-0.09238869
218	0xbdb8ca6a	-0.090229824
219	0x3def2c22	0.116783395
220	0xbdbfa4a7	-0.09357577
221	0xbd3db6b4	-0.046316817
222	0x3d17adf8	0.037031144
223	0xbdff18df	-0.12455916
224	0xbbfe4fce	-0.0077609783
225	0x3d71659b	0.05893479
226	0x3cc4ec50	0.024038464
227	0x3db5a965	0.088702
228	0xbdd28309	-0.10278899
229	0x3d2ea112	0.042634077
230	0x3cb6f3cc	0.022333048
231	0xbd5b703f	-0.053573843
232	0x3d4a7798	0.04943046
233	0x3d472a9c	0.04862462
234	0xbdec8814	-0.11549392
235	0x3d4c81ad	0.049928356
236	0xbdd368e5	-0.103227414
237	0xbd8994d4	-0.0671784
238	0x3ce2bae2	0.027677003
239	0xbb067958	-0.0020519104
240	0xbbcc05f2	-0.0062262947
241	0xbc83c818	-0.016086623
242	0x3d69994c	0.05703096
243	0x3d980b5e	0.07424043
244	0xbdc1be02	-0.09460069
245	0xbda98507	-0.08277326
246	0xbdd45536	-0.10367815
247	0x3dad7b83	0.084708236
248	0x3d0c142d	0.03419893
249	0xbd86e98c	-0.06587514
250	0xbd28968c	-0.041159198
251	0xbc91013b	-0.017700782
252	0x3beb2ddc	0.0071770977
253	0x3dbd5783	0.09245207
254	0x3ddc7758	0.107649505
255	0x3db6b500	0.08921242

fc.2.bias f4 [32]
0	0x3fad23df	1.3526572
1	0xbd9a2ba5	-0.07527856
2	0x3f9b9f95	1.2158076
3	0x3dd03284	0.10165885
4	0x3fa5f300	1.2964783
5	0x3f9cbdc0	1.2245407
6	0x3d8efa91	0.069813855
7	0x3d6d9708	0.058005363
8	0x3f9e939b	1.2388796
9	0x3dc4db61	0.09612156
10	0x3f9c1180	1.219284
11	0x3fa0d4c2	1.2564929
12	0x3faebcd6	1.3651378
13	0xbdb27438	-0.08713573
14	0x3e9bc626	0.30424613
15	0xbda57fc0	-0.08081007
16	0x3d2837af	0.04106873
17	0x3ef41265	0.47670284
18	0x3fa54d7c	1.2914271
19	0x3face907	1.3508614
20	0x3faa6779	1.3312827
21	0x3fa93a5d	1.3220936
22	0x3fae6608	1.3624887
23	0x3f93c07e	1.1543119
24	0x3faa3d85	1.3300024
25	0x3fb0f5ee	1.3825052
26	0x3fa6651f	1.299961
27	0xbd9779bb	-0.07396265
28	0x3f0856d3	0.53257483
29	0x3faa4076	1.3300922
30	0x3f951686	1.1647499
31	0x3f0683ed	0.5254505

fc.4.weight f4 [4, 32]
0	0xbf8ea4a7	-1.1143998
1	0x3e2bf6c3	0.16793351
2	0xbf8f3fa8	-1.1191301
3	0xbd65f125	-0.056138176
4	0xbf9b5255	-1.2134501
5	0xbf676b1d	-0.90397817
6	0x3b8a5b33	0.0042222976
7	0xbdc28fce	-0.09500085
8	0xbf9bc7e3	-1.2170376
9	0x3df579b0	0.11986101
10	0xbf8fe900	-1.1242981
11	0xbf75d827	-0.9603295
12	0xbf950303	-1.1641544
13	0x3e04e149	0.12976564
14	0x40968458	4.7036552
15	0xbdffd5a2	-0.12491919
16	0xbe248ae1	-0.16068603
17	0x409ead28	4.958637
18	0xbf90c08e	-1.1308763
19	0xbf85f5e7	-1.0465668
20	0xbf9b4f42	-1.2133563
21	0xbf8d4bde	-1.1038778
22	0xbf8baffa	-1.0913079
23	0xbf89c4e3	-1.076321
24	0xbf7bb6ea	-0.9832598
25	0xbf9b3eff	-1.21286
26	0xbf6ba034	-0.92041326
27	0xbddff305	-0.10935024
28	0x409c0b4f	4.8763804
29	0xbf620e4d	-0.8830307
30	0xbf8fe563	-1.1241878
31	0x40a49b00	5.143921
32	0xbf624710	-0.8838968
33	0x3d8fe19c	0.070254534
34	0xbf99ad53	-1.2006019
35	0xbb855ec8	-0.0040701367
36	0xbf6e0102	-0.9297029
37	0xbfa06ac9	-1.2532588
38	0x3d885e3f	0.06658601
39	0xbd2730ad	-0.040817905
40	0xbf8a5851	-1.0808202
41	0xbdd974e0	-0.10617995
42	0xbfa21699	-1.2663146
43	0xbf906b23	-1.1282696
44	0xbf72edc8	-0.94894075
45	0xbdbb0dbc	-0.09133479
46	0x409cab57	4.8959155
47	0x3c5c5dc0	0.013450086
48	0x3dea744e	0.114479646
49	0x40a0d60b	5.0261283
50	0xbf8b3524	-1.0875592
51	0xbf6d8408	-0.9277959
52	0xbf841b11	-1.032076
53	0xbf93b3ef	-1.1539286
54	0xbf96039d	-1.1719853
55	0xbf88b5cb	-1.0680479
56	0xbf910dd6	-1.1332347
57	0xbf6c6aaa	-0.92350256
58	0xbf888f01	-1.0668641
59	0xbd2d7110	-0.042344153
60	0x40a064b5	5.0122933
61	0xbf9a66f0	-1.2062664
62	0xbf97b5c7	-1.1852349
63	0x40a07194	5.0138645
64	0xbf8f05c4	-1.1173635
65	0x3dd54cce	0.1041504
66	0xbf84d9ee	-1.0379007
67	0x3d862260	0.06549525
68	0xbf96cf5f	-1.1782035
69	0xbfb51547	-1.4147118
70	0x3e0995a6	0.13435993
71	0x3d792af0	0.060831964
72	0xbf6e8858	-0.93176794
73	0x3dc8f4c2	0.09812309
74	0xbf810bc8	-1.008172
75	0xbf86b250	-1.0523167
76	0xbf6d349d	-0.92658406
77	0x3dc7aa0e	0.09749232
78	0x409cf253	4.9045806
79	0x3e1ffd99	0.15624084
80	0xbdfd154d	-0.123575784
81	0x40a169f4	5.0441837
82	0xbf82d0c7	-1.0219964
83	0xbf9cd1d8	-1.2251539
84	0xbf93a8bb	-1.1535867
85	0xbf829744	-1.0202413
86	0xbf89aea2	-1.0756419
87	0xbf97b17c	-1.1851039
88	0xbf641ccb	-0.89106435
89	0xbf9200d7	-1.1406506
90	0xbf8a0e14	-1.0785546
91	0xbe0aa538	-0.13539588
92	0x409a920f	4.8303294
93	0xbf8e47cf	-1.1115664
94	0xbf8bfef2	-1.0937178
95	0x409b3b79	4.85101
96	0xbf91b77b	-1.1384119
97	0x3e2ce12f	0.16882776
98	0xbf87dd12	-1.061434
99	0x3dd2eb54	0.102987915
100	0xbf6fdc23	-0.93695277
101	0xbfaac8af	-1.3342494
102	0x3da4f722	0.08054949
103	0x3e1ae46b	0.15126197
104	0xbf82e629	-1.0226489
105	0xbd6d7b44	-0.057978883
106	0xbf8e045b	-1.1095079
107	0xbf8fce26	-1.1234787
108	0xbf990883	-1.1955723
109	0xbd9284ad	-0.07154212
110	0x409f3a95	4.975901
111	0x3d7fa0e5	0.0624093
112	0x3d9cb1c6	0.07651095
113	0x40a23860	5.0693817
114	0xbf9785d4	-1.1837716
115	0xbf90ac6e	-1.1302621
116	0xbf73dc2e	-0.9525784
117	0xbf95cb31	-1.1702634
118	0xbf6c1dab	-0.9223277
119	0xbf9ca647	-1.2238244
120	0xbf91d40f	-1.139284
121	0xbf842a1f	-1.0325354
122	0xbf9294b1	-1.1451627
123	0x3e1933f3	0.14961223
124	0x409b6893	4.8565154
125	0xbf674abb	-0.90348405
126	0xbf67c0b8	-0.9052844
127	0x40a2cfdd	5.087874

fc.4.bias f4 [4]
0	0xbf6d24f1	-0.92634493
1	0xbf619909	-0.8812414
2	0xbf1fe142	-0.6245309
3	0xbf70663b	-0.9390599
