BotModel.pth (torch, 6631 bytes, 4 tensors)

fc.0.weight f4 [32, 27]
000000 d9 9a d4 bc fd 97 a6 bd 3b 8a 60 bd 92 8c 1a be
       -0.025952743 -0.08134458 -0.054819327 -0.15092686
000010 d0 19 42 3d 42 1b df bc ac 17 53 3d 0a ba cb 3d
       0.047387898 -0.027234677 0.051536247 0.099475935
000020 50 d2 17 be a1 4c cf bd 18 5d 4a 3d 00 d7 4c 3d
       -0.14826322 -0.10122038 0.049405187 0.050009727
000030 ba 8e f4 3d 60 75 bc bb ce 45 98 3d 87 bb 31 3e
       0.119412854 -0.005751297 0.07435189 0.17356692
000040 90 da ff bc 88 6c 29 bd a4 44 7e 3d 65 c4 00 3e
       -0.031232148 -0.04136327 0.06207718 0.12574919
000050 ba 70 e4 3d ae e6 f9 bd 68 c9 42 be 3c 4c 26 be
       0.111543134 -0.12202202 -0.19022143 -0.16240019
000060 0b 61 16 3e 59 41 3b 3e 22 36 43 be 3d 32 84 bd
       0.14685456 0.18286647 -0.19063619 -0.06454895
000070 29 0d 12 be 30 80 2e bd 22 9f 08 bd 5d 9c cb 3d
       -0.14262833 -0.042602718 -0.033354886 0.09941933
000080 c8 d1 f2 3d 45 8f a3 bd 5e e5 b1 3d 2c c7 0c bd
       0.11856419 -0.07986311 0.086863264 -0.034369633
000090 c0 da 89 bb e8 c0 b7 3c c0 59 49 3b 38 c6 b9 bc
       -0.0042069852 0.022430852 0.0030723661 -0.022677526
0000a0 09 31 a0 bd 70 96 0a bd 8c 2f 60 bd b9 c9 1e 3e
       -0.07821853 -0.033834875 -0.054732844 0.15506639
0000b0 f2 a4 de 3d 88 6c f7 3c b8 a6 69 bd 51 33 d0 bd
       0.108713046 0.030203119 -0.05704376 -0.10166038
0000c0 28 7c 7e bd ee 9e 83 bd a6 17 f9 3d 50 fc dd 3c
       -0.062130123 -0.06426798 0.12162714 0.027097851
0000d0 47 a7 3f 3e e0 5e 46 3c 94 d0 11 3d 10 bf 56 bd
       0.18716155 0.012107581 0.035599306 -0.052428305
0000e0 39 7f 2c 3e d2 f4 ce 3d a1 cd 18 bd d6 bc ec 3c
       0.16845407 0.101052895 -0.037305478 0.028898638
0000f0 29 53 37 3e 48 43 6b bd e3 4b 07 3e 20 d5 d4 bb
       0.17902817 -0.05743721 0.13212542 -0.006495133
000100 6f 36 28 3e c6 16 a5 bd 8e b6 aa 3d 3b 95 35 be
       0.16427015 -0.08060984 0.08335601 -0.17732708
000110 40 29 7e 3c a8 be f1 bc ae 89 9e bd b8 ea 52 bd
       0.015512764 -0.029509857 -0.07741104 -0.051493376
000120 9d 1f 1d 3e 93 17 22 3e c0 5e 6c bc 00 f4 29 ba
       0.15344091 0.15829305 -0.014426887 -0.0006483197
000130 ff 9b 02 3e 48 d0 fc bd 40 fa 90 bb cf 33 0e 3e
       0.1275482 -0.12344414 -0.0044243634 0.13886951
000140 77 6e 30 3e e3 d9 fd bd 8c 25 43 bc 94 13 0b be
       0.17229639 -0.12395074 -0.011910807 -0.13581687
000150 68 c8 e3 3c f5 9b 06 3e 8d 5f f5 bc b4 71 46 bd
       0.027805522 0.1314543 -0.029952789 -0.04844828
000160 7a ad 92 3d 40 d7 9e 3c 0e 46 9a 3d 8b 3b 3e 3e
       0.07161994 0.019389749 0.07532893 0.18577401
000170 5a d6 d3 3d a8 27 d1 bc 2e d8 3b be 23 2d 31 be
       0.10343619 -0.025531605 -0.18344185 -0.17302375
000180 b2 92 fc 3d fc ca 53 bd 50 c0 4c bc 5a 22 c5 3d
       0.123326674 -0.051707253 -0.012497023 0.09625693
000190 f7 c2 0a 3e 55 82 00 3e 70 03 26 be 0c 58 31 be
       0.13550936 0.12549718 -0.16212249 -0.17318743
0001a0 b6 5c 9a 3d 8c e1 f2 bd c8 cb ee bc 76 fd ac bd
       0.075372145 -0.11859426 -0.029149905 -0.08446781
0001b0 31 5f 60 3c 22 b3 ea 3c fe 39 e5 bd 3e a6 83 bd
       0.01369457 0.02864987 -0.11192702 -0.064281926
0001c0 c9 d5 80 3c 2e 64 f5 bc 47 f3 ef bd 6d de 40 be
       0.01572694 -0.029954996 -0.11716323 -0.18834849
0001d0 a6 a2 e3 3d 58 1e ab 3c 10 7e 54 3c 02 19 fb 3d
       0.11115007 0.020888492 0.012969509 0.12260629
0001e0 d1 c1 ed bd f4 77 3a 3d 39 76 30 3e a4 37 77 3d
       -0.11609233 0.045524552 0.17232598 0.060355797
0001f0 ba 74 fa 3d 8e c4 88 3d b5 e1 36 be c3 27 13 be
       0.12229295 0.06678115 -0.17859538 -0.14370637
000200 9d aa 27 be 8e f6 f4 3d 6a 3b 87 3d 62 9d 9d 3d
       -0.16373678 0.11961089 0.06603129 0.07696034
000210 9a da db 3d 0d 3c 1b 3e 88 10 1b bd 9f 7d 23 bd
       0.10735054 0.15159626 -0.037857562 -0.039914723
000220 72 2e 72 bd 70 b6 3e 3a c3 b2 24 3d b5 25 65 3c
       -0.059126325 0.000727511 0.040209543 0.013986041
000230 3d 35 8d 3c db a2 30 be 18 01 a2 3c 5d d6 3d be
       0.0172373 -0.17249624 0.019775912 -0.18538804
000240 28 44 b7 3c 8f 5d 29 3e 38 43 7f bd 9f 84 1d 3e
       0.022371367 0.16539596 -0.062319964 0.15382622
000250 1c 4c 7d bd c0 07 69 bd b3 23 26 be 73 42 3e be
       -0.06184016 -0.056892157 -0.16224556 -0.18580036
000260 ee cf 80 3d e2 7b e8 3d ba 8c dc 3d 63 5c 10 3e
       0.062896594 0.11351754 0.10769029 0.14097743
000270 c8 26 14 be 76 77 84 3d f9 77 03 3e d8 21 ad bd
       -0.14467919 0.06468098 0.12838735 -0.08453721
000280 05 1e 18 3e 28 fb e6 bd 9f 1a b3 3d 42 41 c2 bc
       0.14855202 -0.11278373 0.08745312 -0.023712758
000290 7d 41 05 3e 50 36 95 3e bb 91 d3 bd eb 06 0e 3d
       0.13013263 0.29143 -0.1033053 0.034674566
0002a0 8a c6 ca 3d b2 d0 84 bd a8 5a f5 bc 60 14 b1 bb
       0.099011496 -0.06485118 -0.029950455 -0.00540404
0002b0 44 26 12 bd d3 b2 9f bd 64 c5 00 be 00 3b 07 bd
       -0.035681024 -0.0779778 -0.12575299 -0.03301525
0002c0 45 8e 41 3e 64 75 12 bd 16 dd 44 be a8 29 1c be
       0.18901928 -0.035756484 -0.19224963 -0.15250266
0002d0 2d e7 2e 3e eb cd 32 3e 96 2f c6 3d e8 22 09 be
       0.17080374 0.17461364 0.09677045 -0.13392222
0002e0 a0 0b 93 bc c0 68 4d 3d 8b a3 43 be 38 80 a5 bc
       -0.01794988 0.050148726 -0.19105355 -0.020202741
0002f0 df 24 33 3e 4f 46 43 3d ab 83 e0 bd 1d cf 0b bd
       0.17494534 0.047674473 -0.10962614 -0.034133065
000300 12 0e 9b 3d c7 4f 2f 3d e1 b6 9d 3d bc 07 14 3d
       0.07571043 0.04280069 0.07700897 0.03614019
000310 76 62 94 bd b3 f0 18 3e 6a ff e9 3d a7 39 27 3e
       -0.072453424 0.1493557 0.114256695 0.16330586
000320 76 c9 8e 3d 2c 96 e1 bd 18 a9 4d 3d b7 c0 3f 3e
       0.069720194 -0.11014971 0.05021009 0.18725859
000330 42 dc e2 3d 5f 5b 97 bd 54 4d 6d 3d fa 92 c8 3d
       0.11077167 -0.073904745 0.057935074 0.097936586
000340 cb 10 aa bd 62 9e 42 be e4 8e 18 be 84 9e 45 bd
       -0.08303984 -0.19005731 -0.14898258 -0.048246875
000350 f2 2a e6 3d 3f b7 26 3e 17 48 43 3e 05 72 37 be
       0.1123866 0.1628084 0.19070469 -0.17914589
000360 0d 55 af 3d 5b e6 c6 bd 66 33 5d 3d 82 32 ae be
       0.08561144 -0.097119056 0.054004095 -0.3402291
000370 b8 24 9e bd 7a 38 51 bd 42 43 b9 3d 0b 3b e8 bd
       -0.07721847 -0.05107925 0.090460315 -0.113393866
000380 63 0a 43 3e 3e 71 3c be f5 e4 03 3e 48 0e d3 bc
       0.19046931 -0.18402573 0.12880309 -0.025763646
000390 b1 1b a3 bd 28 d4 17 bd 4d 79 d6 bd 55 be 37 be
       -0.07964266 -0.037067562 -0.10472355 -0.179437
0003a0 d2 63 b8 3d 2c 3e 57 bd 10 dc 7b bc e8 81 7a bd
       0.09003414 -0.052549526 -0.015372291 -0.061159045
0003b0 0a e3 90 3d c0 26 01 3c 14 2a 0d be f0 95 de bc
       0.07074554 0.007882774 -0.13785583 -0.027171105
0003c0 68 d2 b4 bd 11 90 15 3e a0 39 be bc 66 5a 36 3c
       -0.08829194 0.14605738 -0.023220837 0.011129951
0003d0 97 e2 5f 3d d3 4b 9a be bf 24 8e be db b6 93 3c
       0.054659452 -0.30135974 -0.2776241 0.018031528
0003e0 66 93 c8 bd 0d e0 de bd c0 cb 0c be 4c b3 25 3d
       -0.09793739 -0.10882578 -0.137496 0.040454194
0003f0 94 3c 37 3d b0 9c 99 3c 73 ac 44 3e 73 3e 16 3e
       0.044735506 0.018751472 0.19206409 0.1467226

fc.0.bias f4 [32]
000000 4a 68 8b be bc f0 16 3c fc 85 2c be 99 53 5f 3c
       -0.27228004 0.009212669 -0.16847986 0.013630771
000010 2e 28 9e be f2 f2 77 be 5a 3e 71 3e a9 af bf be
       -0.3089003 -0.2421377 0.23558941 -0.37438706
000020 b0 20 19 bd 05 11 31 bf 42 34 83 be 79 4a af 3e
       -0.03738469 -0.69166595 -0.25625807 0.34236506
000030 56 eb 80 be c9 24 73 3e f6 c2 91 3e a6 75 66 3c
       -0.25179547 0.23744501 0.28469056 0.0140661355
000040 e0 19 cb 3c 75 b6 93 3d a2 33 a2 bd 0f d9 7a be
       0.024792612 0.07212535 -0.079200044 -0.24496864
000050 e3 f0 3d 3e 3b 20 29 be 8e 19 58 be 6c c3 82 3d
       0.18548922 -0.16516201 -0.21103498 0.0638493
000060 b6 a8 59 3d 26 f3 9c 3d 7c d4 15 3f de 94 1e be
       0.05313941 0.076635644 0.5852735 -0.15486476
000070 ef 42 05 be 42 a8 3d be 44 66 26 3e f9 9f 47 be
       -0.13013814 -0.18521217 0.16249949 -0.19494618

fc.2.weight f4 [4, 32]
000000 b4 5d 8a 3e a6 40 7f 3d b8 07 75 3d 2a 31 ec 3d
       0.27024615 0.062317513 0.059821814 0.11532815
000010 25 76 8b 3e ae 92 5c 3d 78 da ca bd 70 cb 26 3b
       0.27238575 0.053850822 -0.09904951 0.0025450848
000020 61 39 ff 3d 43 c4 4a 3e 9b 78 96 3d 8c c5 7c 3d
       0.12462116 0.1980143 0.073472224 0.061711833
000030 28 78 47 3d 71 06 06 3e 20 6b 27 3e b0 c1 73 bd
       0.048698574 0.13088395 0.16349459 -0.059510887
000040 26 46 1a 3e 31 5f 26 3e f3 ab 77 3e 91 3c 5b 3d
       0.15065822 0.1624725 0.24186687 0.053524558
000050 5c 39 44 3e 06 b4 55 3e 8b 34 73 3d 59 06 52 3e
       0.19162506 0.20869455 0.05937628 0.20510234
000060 81 a0 35 3e 3e be 7b 3e 90 95 94 3e 5f bd 6c 3d
       0.17737009 0.2458429 0.29020357 0.057797786
000070 48 b4 ba 3d 4d 64 1f 3e 1a 29 c0 3d 6d 7a 75 3e
       0.09116417 0.15565605 0.093828395 0.23972483
000080 6b 55 a6 3e 1f ff 2d 3e 10 74 ce 3d 7d d1 81 3d
       0.32487044 0.16991852 0.10080731 0.06338785
000090 a9 0f 41 3e 97 2e 26 3e 52 6e 5d bd 14 bd dc 3d
       0.1885363 0.1622871 -0.054060288 0.10778251
0000a0 03 78 1e 3e df 29 2f 3e 41 71 ca 3c 24 7a 62 3e
       0.15475468 0.17105816 0.024712207 0.22116905
0000b0 1f 25 db 3d c4 57 38 3e e8 b6 92 3d 3a 5b 86 bd
       0.1070044 0.1800223 0.07163793 -0.06560369
0000c0 36 d3 1b 3e 74 59 17 3d 51 15 ad 3e e0 bb 98 3d
       0.1521729 0.036950544 0.33805326 0.07457709
0000d0 44 ea 79 3d 01 2f 4c 3e 48 f6 06 3e 9b a5 53 3e
       0.06101443 0.19939806 0.13179886 0.20668642
0000e0 59 8f 33 3e b2 51 43 3e cb 57 67 3e 79 e1 53 3d
       0.17535152 0.19074133 0.22592084 0.0517287
0000f0 06 fd 0d 3e b8 a7 ff 3d 93 78 11 bd 5e 78 65 3e
       0.13866052 0.12483162 -0.03551538 0.22409198
000100 63 41 ba 3e 72 0e 82 3d 7d 5d a3 3a 4c b1 ba 3d
       0.3637801 0.063504115 0.0012463775 0.09115848
000110 14 56 42 3e 68 b6 0d 3e 35 ab 67 bd 79 a4 8d 3d
       0.18978149 0.13839114 -0.05655976 0.06916136
000120 e6 40 ef 3d 02 08 a3 3e 71 78 df 3d ee 52 e8 3d
       0.116823 0.31842047 0.10911644 0.113439426
000130 0d 3f 83 3e 41 6b fb 3d cc bd da 3d 40 51 88 bc
       0.2563404 0.122763164 0.10680732 -0.016640306
000140 e1 08 c9 3d a3 3d 88 3d 16 64 2d 3e 68 aa 36 3e
       0.09816147 0.06652381 0.16932711 0.17838442
000150 08 5c 59 3e 03 12 63 3e c7 c2 15 3e ff 30 33 3e
       0.21226513 0.2217484 0.14625083 0.1749916
000160 7b 93 0f 3e 2c 36 36 3e 7c f1 87 3e 08 a8 ac 3d
       0.14021103 0.17794102 0.26551425 0.08430487
000170 2f fa 2c 3e 74 13 85 3d 8f 3b 08 bc 49 a0 70 3e
       0.16892312 0.06497851 -0.008314981 0.23498644
000180 c5 81 8b 3e 09 78 10 3e 1b 40 10 3e 51 76 a7 3d
       0.27247444 0.1410829 0.14086954 0.08176864
000190 c8 ed 08 3d 68 24 a3 3e 49 7d 3e bd 8e 61 4d bc
       0.03342989 0.31863713 -0.0465062 -0.012535466
0001a0 8b fd 36 3e 38 64 8b 3d f1 7d a3 3c 95 d9 73 3d
       0.17870156 0.068062246 0.019957514 0.059533674
0001b0 9b c2 91 3e dc bf 79 3d 9c 4d 61 3d dd a1 4e 3d
       0.28468785 0.060973987 0.055005655 0.050447334
0001c0 6b c0 a0 3d b9 c6 82 3d d8 6a 31 3e 9f 54 e9 3d
       0.07849201 0.063855596 0.17325914 0.11393093
0001d0 d6 fc 60 3e 1f 58 92 3e be 18 6c 3d aa 02 41 3e
       0.2197145 0.28582856 0.057640783 0.18848673
0001e0 b2 48 5e 3e c4 18 47 3e 7a bc 5d 3e 89 f2 49 3d
       0.21707419 0.19443041 0.2165393 0.049303565
0001f0 93 57 0c 3e 4c d0 5a 3e 7a 71 72 3c 4d 52 3c 3e
       0.13705282 0.21368521 0.014797563 0.1839077

fc.2.bias f4 [4]
000000 ba 08 a1 3d 33 5b ee 3c bd f7 ef be 4c 1e 21 be
       0.078629926 0.029096222 -0.46868697 -0.15734214
