BotModel.pth (torch, 4199 bytes, 4 tensors)

fc.0.weight f4 [32, 6]
000000 8d 39 c8 bd be 62 ba bd b8 fa 1d be 51 b1 1b 3e
       -0.09776602 -0.09100865 -0.15427673 0.1520436
000010 73 e4 2d 3e 23 ba ac be 67 84 af 3e d5 e7 21 3e
       0.16981678 -0.3373576 0.34280702 0.15811093
000020 6c 4e 17 bd 06 70 bc 3e 30 9f e3 3d d3 bb 9d 3e
       -0.036940023 0.36804217 0.11114347 0.3080736
000030 11 8c a3 be 5a f0 61 be 81 cf 4d 3e 60 e1 9d 3d
       -0.319428 -0.22064343 0.20098688 0.077090025
000040 fc d3 96 3e 0b e2 68 3e 2b 7d 4f 3e 1e 5c e3 3c
       0.29458606 0.22742479 0.20262592 0.027753886
000050 e5 5e 7a be 15 58 ad 3e d5 56 a7 be 5a df 18 be
       -0.24450262 0.33856264 -0.32683435 -0.14928952
000060 4c 20 af be f2 23 0e 3e 41 14 cb bd b8 e8 81 3e
       -0.34204328 0.138809 -0.099159725 0.25372863
000070 f6 e3 be bd 0b e2 c2 3e f1 fa 87 3e 0d 42 ad be
       -0.09320824 0.38063082 0.2655864 -0.33839455
000080 3c d8 24 3c 0c 14 9f be bc de aa be b6 cd 18 be
       0.01006132 -0.31069982 -0.33373058 -0.14922222
000090 78 4b ae 3e 3b 8b b3 3e a9 fe 92 3d 43 52 85 be
       0.34041953 0.35067162 0.07177479 -0.26039323
0000a0 48 c0 4e 3d 1b 14 4f be 0f 1f bc be b9 0b 09 3d
       0.050476342 -0.20222513 -0.36742446 0.033458445
0000b0 02 43 b3 3e 9e 6b fe 3d dc b2 bf bd 1b 30 f9 bc
       0.3501206 0.1242287 -0.093602866 -0.030418446
0000c0 62 11 c4 3c 23 cf 30 be d9 6e d8 3e 6b 15 90 be
       0.02393407 -0.17266516 0.4227207 -0.2814134
0000d0 21 cf b6 be 25 8b 5e 3e ca 50 fe bd 34 52 0c 3e
       -0.35704902 0.21732767 -0.12417753 0.13703233
0000e0 d1 fb 87 be 46 ca 36 bd 94 22 7a 3e e6 a4 05 3d
       -0.26559308 -0.044626497 0.24427253 0.032627963
0000f0 a9 89 a7 3d 53 d3 ee bd a1 77 7e 3e b6 e9 e9 3d
       0.081805535 -0.11661401 0.24850322 0.1142153
000100 26 82 12 be de 66 22 3e f8 af ba be c5 5d 80 3e
       -0.1430746 0.15859553 -0.36462379 0.2507154
000110 fb ed c8 3d 34 fe ab 3e 5e 5e 87 be 00 76 ca 3e
       0.09811016 0.3359238 -0.26439184 0.39543152
000120 63 c8 90 3e 82 da 9a 3e 12 83 8d 3e ad 95 5c 3e
       0.28277883 0.30244833 0.2763906 0.21541472
000130 93 50 44 3e a1 2e 6a 3e 08 c8 ee 3b 26 ee d1 3d
       0.19171362 0.2286935 0.007287029 0.10250501
000140 cb 61 fb 3d ac a4 06 3e c6 5c 8d be 81 5b c6 be
       0.12274512 0.13148755 -0.27609843 -0.38741687
000150 76 2b af be 36 f3 2b be 67 9c 35 be 77 7d c1 be
       -0.34212846 -0.16791996 -0.17735444 -0.37791035
000160 f9 88 41 be 13 0e 84 3e 41 47 b0 be 27 72 13 be
       -0.18899907 0.25791988 -0.34429362 -0.14399014
000170 46 09 5e 3e b5 d7 c3 be 63 ea 1f 3e 86 b2 5d be
       0.21683225 -0.3825051 0.15616755 -0.21650133
000180 3f 29 93 3e 5a 02 65 3e 2e 2b 39 3d 98 8a b2 3e
       0.28742406 0.22364178 0.045207195 0.34871364
000190 ea 12 b2 3b a9 75 41 be 46 60 9c be 71 fc 83 3e
       0.0054343836 -0.1889254 -0.305422 0.25778535
0001a0 81 d5 80 be 0f c8 87 be 38 dd bf be 28 69 3a bd
       -0.2516289 -0.2651982 -0.37473464 -0.04551044
0001b0 7e 8e 45 3e 07 f9 34 be ee 5f b3 be ea be 28 3e
       0.19292638 -0.17673121 -0.35034126 0.16479078
0001c0 75 2a bc 3e 63 eb f8 bd d8 8a a3 3e 25 ba 3c be
       0.36751142 -0.121542715 0.31941867 -0.18430384
0001d0 ed f1 f9 3d 59 27 a0 be 3c e5 a4 3e 0e 56 ce 3d
       0.12204347 -0.3128002 0.32206142 0.100750074
0001e0 62 07 f8 3b 5c c2 b6 be c7 6d 89 be 24 b2 75 3d
       0.0075692395 -0.3569516 -0.26841566 0.05998434
0001f0 20 28 aa 3e 96 e9 b1 3e e7 12 4b 3e 3c 3c c0 3e
       0.33233738 0.34748524 0.1983143 0.37545955
000200 42 a5 b3 be c5 44 51 3e 73 ae a3 3e 44 a0 87 3d
       -0.3508702 0.2043639 0.31969032 0.06622365
000210 38 53 7f 3e 46 46 33 be 7a db ad be 39 c3 a2 3e
       0.24934089 -0.17507276 -0.3395651 0.31789568
000220 b7 8c c4 be a0 c5 3c bc 9e 4b 3c 3d 9c 51 4c be
       -0.38388607 -0.011521727 0.04597055 -0.19953007
000230 d8 28 57 be f8 c4 8e 3e dc 1d e4 bd 54 23 89 3e
       -0.21011674 0.2788465 -0.11138508 0.26784766
000240 97 de af 3d ae e5 75 3e f9 c0 d0 be 54 da 76 bd
       0.085873775 0.24013397 -0.40772226 -0.060266808
000250 46 10 75 be ae 84 0c 3e c8 39 6b 3e 90 db ae 3e
       -0.23931989 0.13722488 0.2297126 0.34151888
000260 b3 f6 97 3e cc 85 35 be e4 34 a0 bc b8 5e d0 3e
       0.29680404 -0.1772682 -0.01955647 0.40697265
000270 46 2f 89 3e 0a 24 b1 3e 73 e6 0a 3e 72 77 19 be
       0.2679388 0.34597808 0.13564472 -0.14986971
000280 73 66 e7 3d 28 00 93 be d3 10 f8 bc b2 e4 70 3c
       0.112988375 -0.28711057 -0.03028146 0.014702963
000290 e8 4a a2 3e 86 2f 09 bd 1f c0 ca 3e fc 7a 9d be
       0.31697774 -0.033492588 0.39599702 -0.30757892
0002a0 cc 96 01 3e 86 aa 7f 3e 30 ad 6b be 00 5f 85 3e
       0.1265518 0.24967393 -0.23015285 0.26049042
0002b0 94 e6 7b bd 2d 0a 29 bc ed bd a2 be 95 95 af 3d
       -0.061499193 -0.0103173675 -0.31785527 0.085734524
0002c0 33 f8 18 3d fe f5 82 3d 8f e6 e9 3d 73 34 c4 be
       0.037346076 0.063945755 0.11420929 -0.38321266
0002d0 75 59 1c 3d e5 78 8f be 74 30 fa 3c 36 8b bb 3e
       0.03817125 -0.28021923 0.030540682 0.36629647
0002e0 83 ac 2d 3e e9 6c b8 be de 07 80 be 83 2e 5b 3d
       0.16960339 -0.36020592 -0.25006002 0.053511154
0002f0 b1 b4 c0 be f4 fb 0c 3e e7 f0 27 be f7 8f 57 3e
       -0.37637857 0.13767987 -0.1640049 0.21051012

fc.0.bias f4 [32]
000000 12 af a2 3e 90 13 b5 be 83 39 1c 3e 11 ed aa bc
       0.31774193 -0.35366488 0.15256314 -0.020864995
000010 15 9e 46 3e 07 b2 13 3c 25 8d 77 be c3 9f 62 3e
       0.19396241 0.009014613 -0.24174936 0.22131257
000020 0e 45 90 be 16 1f 07 bd c9 53 8d be 6b 66 7e be
       -0.28177685 -0.03298863 -0.27602986 -0.24843757
000030 a5 9f 10 be 5a dc 39 bd e2 eb 8d 3e 39 0e 4d be
       -0.141234 -0.04537616 0.27719027 -0.20024957
000040 20 3d cc 3e ce bd a2 3d aa df b2 3e 87 5b d6 be
       0.39890385 0.079463586 0.34936267 -0.41866705
000050 50 e9 a4 bd 5a 44 b8 be 9a 29 25 be 01 02 59 3e
       -0.08052313 -0.35989648 -0.16129151 0.2119217
000060 04 4f 98 3d 29 6e 06 3c 2e e1 af bd 73 0b 95 3e
       0.07436946 0.008204975 -0.085878715 0.29110298
000070 bd a6 d2 3d 4d 74 ae be 0d 24 a9 be 00 44 e9 3d
       0.10285709 -0.34073105 -0.33035317 0.11389923

fc.2.weight f4 [6, 32]
000000 b2 a4 4d 3e 61 e1 5b bd e5 95 a4 bd ab 93 14 be
       0.20082358 -0.053681735 -0.080364026 -0.14509456
000010 60 ca 71 bd 3b 6b 11 be 43 14 7e 3c de 10 0d be
       -0.05903089 -0.14201061 0.01550776 -0.13775966
000020 57 3c e2 3b 70 1e cc bd 28 70 bf bd 3e 8b 5e bd
       0.0069041657 -0.09966743 -0.09347564 -0.05433201
000030 39 45 cf 3d 76 81 41 3e a6 d9 60 3d b9 96 1f 3e
       0.10120625 0.18897042 0.054895066 0.1558484
000040 a4 e3 d3 3d df 56 3a 3d 5b 23 bb 3d 08 73 9f bd
       0.103461534 0.045493003 0.09137603 -0.07785612
000050 f0 6a 27 3e 68 d0 91 bc 5e 2e d7 3d d7 3d 4a bd
       0.16349387 -0.017799571 0.10506891 -0.04937538
000060 fe bf 86 bd 08 49 cd 3d 23 30 13 be 35 87 ac bc
       -0.06579588 0.10023695 -0.14373831 -0.021060565
000070 c8 aa 11 bd 74 48 e2 bd 21 bb 07 3d 66 f3 91 bd
       -0.03556326 -0.110489756 0.033137444 -0.07126503
000080 50 d1 a4 bd 6b d9 33 3e cb 28 84 3c fc a5 36 3e
       -0.08047736 0.17563407 0.016132733 0.17836756
000090 91 2f 10 3e a3 07 f5 bd 93 a0 68 3d e5 24 57 3d
       0.14080645 -0.11964347 0.05679376 0.05252542
0000a0 36 9d 1f 3e 87 fa 28 be d0 52 f8 ba 6c c9 99 bd
       0.15587315 -0.16501819 -0.0018945578 -0.07509121
0000b0 28 cc df bd a0 81 90 bd 54 9e a9 bd 54 53 2a be
       -0.109276116 -0.07055974 -0.08282152 -0.1663335
0000c0 d0 a3 2d 3e 60 de 34 3e 1f 46 27 bd 46 54 05 be
       0.16957021 0.17662954 -0.040838357 -0.13020429
0000d0 0a 0e cb 3d 5a cb 6e 3d 53 d1 b6 3d c5 56 de 3b
       0.09914787 0.0582994 0.08926644 0.006785246
0000e0 21 c4 a5 bd 7a e5 01 3b 03 bb 6c 3d f3 af 06 3e
       -0.08094049 0.0019820617 0.057795536 0.13153057
0000f0 44 51 23 3e cf 4d 21 3e 66 32 86 3d 3f 1f f9 3d
       0.15948969 0.15752338 0.065525815 0.12164163
000100 82 8e 29 3e b9 82 e1 3c 47 ae 2c 3e 16 89 11 be
       0.16558269 0.027528154 0.16863357 -0.1421245
000110 3d 00 8b bc 83 23 f1 bd d9 46 2a 3d 3f 58 f3 bd
       -0.016967887 -0.117743514 0.04157147 -0.11882066
000120 73 bf 87 bd a3 10 41 3e 9e 3f 6a 3d 89 cb 18 bc
       -0.06628313 0.18854003 0.057189576 -0.00932587
000130 2b 62 50 3d 98 14 36 bd ad 69 5b 3c f8 28 0c 3e
       0.05087487 -0.044453233 0.013391894 0.13687503
000140 90 89 0f 3d 7b cd 6d 3d 2c 9f 0b be 75 4d b7 3d
       0.0350433 0.05805729 -0.13634938 0.08950321
000150 fe c6 3e 3e 34 a7 29 be 04 42 91 3d 1a 2a c5 bd
       0.18630597 -0.16567689 0.070926696 -0.09627171
000160 e8 39 2d 3e 12 54 ea 3d b1 b6 0d 3e 7e 98 05 3e
       0.1691662 0.114418164 0.13839222 0.13046452
000170 cd 3a 14 be b5 4f 64 3d 5b 89 85 bc f4 36 d3 bd
       -0.14475556 0.055740077 -0.016300848 -0.10313216
000180 bd 76 88 bb 68 d0 82 bc 1e 36 4d bd 2c ce 77 bd
       -0.0041645453 -0.015968516 -0.05010044 -0.060499355
000190 8a 01 c2 3c df e5 81 3c 8e 78 43 3d 40 9e 19 be
       0.023682375 0.015856681 0.04772239 -0.15001774
0001a0 21 4a db 3c c3 85 10 3e 3f 35 c9 3d d3 05 d7 3d
       0.026768746 0.14113526 0.09824609 0.10499158
0001b0 99 14 3c 3c ea 68 4c 3d 66 0e b8 bd 41 73 b4 3d
       0.01147952 0.04990474 -0.08987121 0.088110454
0001c0 00 7a a7 3d 31 9e 00 3e b1 45 11 3e 08 e4 21 be
       0.081775665 0.12560345 0.14186741 -0.15809643
0001d0 a2 72 02 3e 04 de e8 3d d3 17 db 3d b2 10 26 be
       0.12739041 0.11370471 0.106979035 -0.16217306
0001e0 ab 76 ae bc 8b b7 16 3d d6 48 ed 3d b0 bf b4 3d
       -0.02129682 0.036796134 0.11586158 0.08825624
0001f0 a4 6c 09 3d e4 d2 1f 3e a8 21 f4 bb 87 c4 ab 3d
       0.033550873 0.15607792 -0.007450301 0.08387094
000200 de 0b 01 be 75 63 f5 3d c1 78 b7 bd a4 ef 0d be
       -0.12602183 0.119818605 -0.08958579 -0.13860947
000210 36 90 30 be c4 67 bf 3c a2 c4 5a 3c 0e 22 32 3d
       -0.17242512 0.023364909 0.013352545 0.04348951
000220 64 2c e9 bc 75 fe 3b be fb 0e 4b be 33 5a e7 bd
       -0.02846355 -0.18358786 -0.19829933 -0.11296501
000230 39 4d ee 3d c8 20 14 be a0 95 49 3d 5c 00 f7 3d
       0.11635823 -0.1446563 0.04921496 0.120606154
000240 b9 a0 01 3e a3 b2 d7 3d dd a4 19 3e 26 6e 8e 3c
       0.12658967 0.10532119 0.15004297 0.017386507
000250 d1 90 cd bc 73 b2 37 be f1 7f 48 be f1 eb 96 bd
       -0.025093468 -0.17939167 -0.19580056 -0.07369221
000260 df 2d 54 3d 1d 7c 2e be b6 43 dc 3d 81 17 97 bd
       0.05180156 -0.17039533 0.10755102 -0.0737753
000270 de 5a 08 bd 84 52 45 be fb ff ec bc 9d 07 be 3b
       -0.033289783 -0.19269758 -0.028930655 0.0057992474
000280 23 a8 96 3d d6 d6 8b bd e0 84 07 3d 43 22 0c 3d
       0.07356288 -0.06828086 0.033085704 0.034212362
000290 3f 75 ea bc 85 d7 45 bd 15 2c 2d be 5d 2c 0a be
       -0.02862036 -0.04830124 -0.16911347 -0.13493486
0002a0 0c ee 27 be d2 55 5f 3b 39 7f c2 bd a6 a0 f1 bd
       -0.16399401 0.0034078253 -0.09496922 -0.117982194
0002b0 0c 6a 0c 3e 7f c6 70 bd ee 4c 8c bd 68 af e7 3c
       0.13712329 -0.05878305 -0.06850611 0.028281882
0002c0 8f 22 41 bd 6f e2 e1 3d 9a 8a 94 bd b0 03 c5 3c
       -0.0471521 0.11029517 -0.07252999 0.02404961
0002d0 ec be ab 3d a5 5c b6 3c 29 75 9e bd dc bf d5 3d
       0.08386025 0.022260973 -0.0773719 0.10436985
0002e0 6e b7 ec 3d 64 e0 a0 3b c6 73 c1 3d e8 7f a7 bd
       0.11558424 0.004909562 0.0944591 -0.08178693
0002f0 87 0a 07 be c0 b9 1f 3e 3d f7 8e 3d c2 c3 d7 3d
       -0.1318761 0.15598202 0.06980751 0.10535385

fc.2.bias f4 [6]
000000 f0 f2 53 bd 0d 1d 39 3e 3b d8 e3 3d b5 05 ab bd
       -0.051745355 0.18077488 0.11125227 -0.08350698
000010 0f 4b f7 bd 3c e3 bd 3d
       -0.12074863 0.09271857
