BotModel.pth (torch, 534569 bytes, 24 tensors)

fc1.weight f4 [256, 8]
-0.119153254 -0.11805777 -0.0634113 -0.97295624 0.36649027 0.14845234 -0.31716064 -0.022053733
-0.10285047 -0.061745565 -0.06163967 0.05707954 0.22285938 0.109072655 -0.14884762 -0.0498194
0.05116519 0.22032753 -0.00023766203 -0.0031037817 -1.1510469 -1.0864346 -0.6664962 0.03726398
-0.19579393 0.16447406 0.034576114 -0.73980725 -0.06299151 -1.377961 -0.41994232 0.049351655
-0.29394636 0.15953222 -0.5255752 -0.39563394 0.99370635 -0.5357027 0.11277788 -0.25581235
-3.896003e-38 4.7161014e-38 7.28742e-40 -4.2107152e-38 -5.918005e-38 9.319969e-39 -3.442543e-38 1.0947263e-37
0.2718253 0.19773054 -0.5654141 -0.2055618 -0.37758338 -0.17953035 0.07035325 -0.31604972
0.15301816 -0.22976172 -0.09916582 0.2924622 -1.1721644 -1.0926876 -0.7338972 0.18737948
-0.52388155 -0.33341026 -0.1961945 -0.8022663 0.4533537 0.23544805 -0.2387704 -0.560686
0.04467064 -0.007729331 -0.049853172 -0.6068769 -0.56658936 -0.19976972 -0.5786539 0.028332978
-0.796885 -0.12198017 0.1529942 1.175047 -0.5128586 0.38696665 -0.24177444 0.20270386
0.3074454 0.1346997 0.046389658 0.2569086 1.8946313 0.62824625 -0.38862407 -0.0160106
-0.5583531 0.5727206 -0.038132183 0.22786699 -0.16488504 0.40075535 0.3500407 0.22829297
-1.1484181 -0.25345954 0.29255474 1.0923647 -0.87332463 -0.28572074 -0.50374603 0.68666446
-0.29744104 -0.25015283 0.024511192 0.019056734 -0.3803326 1.5040683 -0.5453805 0.07330823
0.08564644 0.032248206 -0.07237815 0.38716716 -1.2179023 -1.5585932 -0.65109617 -0.07125869
-0.15246755 -0.15994294 -0.09445518 1.2882148 0.8262002 -0.48655778 0.1642659 -0.44321334
-0.5063612 0.0075260703 -0.04915349 -0.3779981 0.07179415 -1.3737695 -0.26723036 0.22551247
-0.0047935927 -0.0043082405 -0.00492791 -0.0018070868 -2.9799221e-05 0.00057144725 -0.000313056 -0.0049467217
0.10548784 -0.1582039 -0.17428623 -0.8406234 0.75872105 -0.67315483 -0.49811712 -0.2085865
-0.23003155 0.28696078 -0.3921418 -0.15444104 -0.029061425 -0.5148832 -0.39369842 -0.21041425
-0.18269762 -0.28660473 -0.0044959974 0.24037394 0.20470047 0.71343106 -0.88791776 0.2758225
0.07175335 -0.23178133 -0.030376954 -0.82804525 0.19909716 0.3913397 0.21763271 -0.2750011
-0.24182639 0.034988746 0.07547256 -0.7144849 0.2453722 -0.995246 -0.36812797 0.16251451
-0.76839596 -0.273304 -0.26135483 -0.52700245 0.28684247 0.28490904 -0.28761134 -0.37430197
0.22144994 0.328258 -0.61704993 0.20028667 -0.1566927 -0.5557646 -0.5196606 -0.25285786
-0.114745736 -0.1387949 -0.10144099 -0.9219147 0.17683455 0.4403387 0.049006954 -0.076922484
-0.20944935 -0.16461736 -0.005490024 -0.3524968 0.63793623 1.1399575 -0.29825118 0.06291214
0.15528874 -0.17163819 -0.08267494 -0.18687782 0.20249881 -1.0922254 -1.0465415 0.07728378
-0.37949327 0.8727732 0.10159989 0.00035826716 -0.098166555 0.20058544 0.017086523 0.019886428
0.37291744 0.22179686 -0.10684212 -0.49781135 0.7612968 -0.6180326 -0.099471025 0.20716918
0.0058963466 0.0049203355 -0.008170768 -0.004422052 0.017570456 -0.014424078 -0.012247991 0.0068142484
00000000: 9f06 f4bd 46c8 f1bd c9dd 81bd a913 79bf
00000010: 9da4 bb3e e403 183e e162 a2be 08aa b4bc
00000020: 44a3 d2bd ebe8 7cbd e179 7cbd 3ccc 693d
00000030: 4035 643e 7c61 df3d 836b 18be 6d0f 4cbd
00000040: 9792 513d 8a9d 613e ea34 79b9 d168 4bbb
00000050: 8155 93bf 4a10 8bbf 7f9f 2abf 1da2 183d
00000060: 347e 48be e36b 283e af9f 0d3d 0264 3dbf
00000070: b101 81bd 0761 b0bf ae02 d7be f624 4a3d
00000080: 2380 96be 6a5c 233e 198c 06bf 8890 cabe
00000090: 8a63 7e3f d023 09bf 17f8 e63d d6f9 82be
000000a0: 5b1e 5481 6e62 8001 70ef 0700 ce40 6581
000000b0: 7a1a a181 487c 6500 0c6e 3b81 a501 1502
000000c0: b02c 8b3e e079 4a3e fabe 10bf cb7e 52be
000000d0: 9c52 c1be ced6 37be 5d15 903d 45d1 a1be
000000e0: cbb0 1c3e a846 6bbe 7317 cbbd 9bbd 953e
000000f0: 7c09 96bf 30dd 8bbf b0e0 3bbf 68e0 3f3e
00000100: 1a1d 06bf c0b4 aabe 36e7 48be 5361 4dbf
00000110: fa1d e83e 4b19 713e 3a80 74be 1e89 0fbf
00000120: 90f8 363d 5446 fdbb d732 4cbd 495c 1bbf
00000130: 000c 11bf 6f90 4cbe a922 14bf 901a e83c
00000140: a800 4cbf bdd0 f9bd 83aa 1c3e f167 963f
00000150: b44a 03bf 7e20 c63e b893 77be 9a91 4f3e
00000160: 7c69 9d3e b8ee 093e 1503 3e3d 8689 833e
00000170: 4783 f23f bfd4 203f bcf9 c6be a928 83bc
00000180: 3bf0 0ebf d19d 123f 7e30 1cbd f755 693e
00000190: a0d7 28be ce2f cd3e 8938 b33e a2c5 693e
000001a0: 5dff 92bf 73c5 81be bcc9 953e 9bd2 8b3f
000001b0: 3492 5fbf fd49 92be 80f5 00bf 3ec9 2f3f
000001c0: 314a 98be 0814 80be b2cb c83c de1c 9c3c
000001d0: f4ba c2be 4f85 c03f 0e9e 0bbf a022 963d
000001e0: 6767 af3d b216 043d ff3a 94bd c63a c63e
000001f0: 39e4 9bbf fb7f c7bf 3dae 26bf 13f0 91bd
00000200: 7420 1cbe 15c8 23be b871 c1bd 39e4 a43f
00000210: db81 533f 1a1e f9be 5235 283e dcec e2be
00000220: e3a0 01bf 419d f63b 2c55 49bd f888 c1be
00000230: d008 933d aed7 afbf 6bd2 88be beec 663e
00000240: 9213 9dbb 242c 8dbb 4e7a a1bb c5db ecba
00000250: 57f9 f9b7 2dcd 153a aa21 a4b9 1c18 a2bb
00000260: 020a d83d 3400 22be 1778 32be 1833 57bf
00000270: 8b3b 423f e053 2cbf 3509 ffbe b397 55be
00000280: 648d 6bbe 86ec 923e cfc6 c8be cb25 1ebe
00000290: 3a12 eebc 63cf 03bf d792 c9be d576 57be
000002a0: 1615 3bbe dbbd 92be 2953 93bb 9624 763e
000002b0: 009d 513e 6ba3 363f 944e 63bf 9b38 8d3e
000002c0: 6cf3 923d 1658 6dbe 17d9 f8bc c6fa 53bf
000002d0: 20e0 4b3e ad5d c83e 1cdb 5e3e f2cc 8cbe
000002e0: 56a1 77be 5c50 0f3d 5c91 9a3d 7be8 36bf
000002f0: da42 7b3e 71c8 7ebf 457b bcbe 346a 263e
00000300: 99b5 44bf 80ee 8bbe 4dd0 85be a2e9 06bf
00000310: 04dd 923e 99df 913e cb41 93be 82a4 bfbe
00000320: c6c3 623e 6f11 a83e fcf6 1dbf f317 4d3e
00000330: 0d74 20be 9746 0ebf 7a08 05bf 9676 81be
00000340: d0ff eabd 4020 0ebe 4bc0 cfbd 9a02 6cbf
00000350: 1e14 353e 1374 e13e 84bb 483d 8989 9dbd
00000360: e479 56be 7491 28be a9e5 b3bb 767a b4be
00000370: ca4f 233f 21ea 913f 61b4 98be 14d8 803d
00000380: 0304 1f3e ecc1 2fbe 7b51 a9bd e65c 3fbe
00000390: d95b 4f3e 0bce 8bbf 12f5 85bf f546 9e3d
000003a0: f14c c2be 106e 5f3f 9a13 d03d ced5 bb39
000003b0: 8c0b c9bd 4566 4d3e 09f9 8b3c dde8 a23c
000003c0: 09ef be3e b71e 633e 0bd0 dabd 21e1 febe
000003d0: 59e4 423f 6237 1ebf 77b7 cbbd 2824 543e
000003e0: 2436 c13b c43a a13b afde 05bc dce6 90bb
000003f0: ebef 8f3c f852 6cbc ccab 48bc 0f4a df3b

fc1.bias f4 [256]
0.12101229 -0.008929477 -0.048510972 0.030150635 0.17117077 -5.292394e-38 0.027184827 -0.037243776
-0.17908886 0.13125612 -0.0056121224 -0.14030573 -0.111118644 -0.3117891 0.015313471 -0.03810935
-0.039832056 0.14135543 -0.009176504 0.13070233 0.1645832 0.122895055 -0.22807325 0.052952427
-0.15542674 0.12255318 0.15199 0.027428996 0.10353096 -0.12767123 -0.082511984 -0.0052643446
0.058248933 -0.059259564 0.07026838 -0.0037907818 -0.06479957 0.0075842217 0.10703084 -0.1361287
0.045522824 0.01939642 -0.10063954 -0.11823761 -0.051110376 -0.04838195 -0.07289916 0.13836373
-0.035261445 -0.094303496 -0.0063009434 0.078208566 -0.09864276 -0.0069842585 0.15475947 0.059512027
0.08504442 0.061277963 0.060577206 -0.04435869 -0.17701928 -0.06514404 -0.15690139 -0.15898784
-0.012614769 -0.0037030217 -0.10177024 -0.027899312 -0.031792667 0.15710096 0.093632065 0.04999609
0.11115119 0.169181 -0.014478987 0.09934139 -0.0031545165 0.16700603 -0.22417103 -0.22200952
-0.09117687 -0.10614848 0.14535823 0.097220555 -0.049284883 0.040717006 -0.17848767 -0.055384696
-7.211936e-38 -0.10134477 0.0525547 0.073166884 -0.116582036 -0.11943042 0.18721046 0.0041708373
-0.050313298 0.011509112 -0.03352996 -0.18270154 -0.032591432 -0.13756977 0.1476668 -0.034916777
-0.050167687 -0.057761367 0.041405372 0.072787486 0.113422595 -0.13261126 -0.011964384 -0.046243608
-0.10080518 0.15450099 -0.21995828 -0.15155208 0.10220524 0.065315425 0.14844787 0.12752406
0.046044618 -0.08916351 -0.12983854 -0.1745308 0.05043471 -0.045869436 -4.9886237e-38 0.09864952
0.057760388 0.044098817 0.06482863 -0.38977644 0.02377269 0.040565625 0.081759565 0.19062915
0.061479747 -0.14448528 -0.09580334 -0.015261374 -0.09559535 -0.005383929 -0.05364105 -0.03956279
0.001786833 0.1606131 0.069852546 0.06895745 0.005784012 0.0499764 0.17894627 -0.0071191085
-4.4275454e-38 0.048101272 0.07199982 0.16640998 -8.2512e-38 0.08248064 0.1503921 0.17746444
-0.1379436 0.14467937 -0.14954717 -0.09969177 0.15767 -0.011579878 0.034970522 -0.052720543
-0.10481402 -0.0012139479 0.0094993105 0.07765283 0.121347144 0.20693514 -0.22987264 0.1233826
0.06254527 0.107090466 0.15262844 -0.12298239 0.07867987 0.08087731 0.056166 0.07400179
0.06881845 0.03712198 -0.23977092 -0.11193216 -0.01696631 0.14381264 -0.020635495 0.09785728
0.07530985 0.04018578 -0.06488445 -0.20771706 0.1210607 0.033050403 0.030482113 -0.0015747932
-0.064328104 0.059877504 0.113014445 -0.040331587 -0.03203542 -0.030771853 -0.1057378 -0.005512012
0.03819934 0.028380092 -0.120735355 -0.18674171 0.13078792 -0.07171931 -0.08947977 0.16738258
-0.010085767 0.031840403 0.055269677 0.1361871 -9.619723e-38 0.015873738 0.18672226 0.112600744
-0.09708422 0.064989485 -0.003432719 0.049624003 0.021342045 -0.08854686 0.14211005 0.087432265
0.10532742 -0.026698055 0.12062468 -0.18201458 0.16640596 0.013217088 -0.0053061005 -0.008186277
0.09920118 -0.19328411 -0.0037864093 0.10151999 0.03601218 -0.12537543 0.046881635 -0.19091329
0.21901391 -0.09108267 -0.08146101 0.074732445 -0.1805667 0.048053212 -0.11302861 0.038781807
00000000: 4bd5 f73d f14c 12bc 71b3 46bd 77fe f63c
00000010: 6447 2f3e 9a12 9081 b7b2 de3c ee8c 18bd
00000020: 1263 37be 0168 063e e5e5 b7bb 4eac 0fbe
00000030: 2c92 e3bd d2a2 9fbe 5ae5 7a3c 8d18 1cbd
00000040: f026 23bd 7abf 103e 0c59 16bc d5d6 053e
00000050: 8088 283e 67b0 fb3d 098c 69be a5e4 583d
00000060: 3028 1fbe 29fd fa3d 44a3 1b3e c6b2 e03c
00000070: 0a08 d43d 3fbc 02be 0bfc a8bd 8680 acbb
00000080: 6f96 6e3d 28ba 72bd dee8 8f3d c46e 78bb
00000090: a3b5 84bd 1085 f83b fc32 db3d 5265 0bbe
000000a0: 2476 3a3d 3ee5 9e3c 1a1c cebd 8f26 f2bd
000000b0: 1d59 51bd 272c 46bd 284c 95bd 39af 0d3e
000000c0: 4e6e 10bd 3122 c1bd 2578 cebb d02b a03d
000000d0: 3705 cabd 35dc e4bb 4479 1e3e e2c2 733d
000000e0: c52b ae3d 9afe 7a3d ce1f 783d 75b1 35bd
000000f0: 8b44 35be 3d6a 85bd c2aa 20be b5cd 22be
00000100: 2dae 4ebc 65ae 72bb ea6c d0bd 198d e4bc
00000110: 0739 02bd 13df 203e 2bc2 bf3d b3c8 4c3d
00000120: 3ca3 e33d c93d 2d3e 4639 6dbc 8073 cb3d
00000130: 01bc 4ebb a103 2b3e 178d 65be 7756 63be
00000140: f0ba babd 6064 d9bd cad8 143e 921b c73d
00000150: f2de 49bd e0c6 263d 79c5 36be 10db 62bd
00000160: dc53 c481 d98d cfbd 9943 573d 85d8 953d
00000170: 90c2 eebd f097 f4bd 19b4 3f3e 85ab 883b
00000180: 5115 4ebd b790 3c3c b656 09bd 1d16 3bbe
00000190: 987e 05bd 17df 0cbe f735 173e e504 0fbd
000001a0: a27c 4dbd 2f97 6cbd ae98 293d 9b11 953d
000001b0: 1b4a e83d 3fcb 07be 4306 44bc f069 3dbd
000001c0: f272 cebd 8235 1e3e be3c 61be 7830 1bbe
000001d0: fb50 d13d 18c4 853d b802 183e ab95 023e
000001e0: 4899 3c3d 5c9b b6bd 65f4 04be 34b8 32be
000001f0: a094 4e3d 97e1 3bbd a2cd 8781 c208 ca3d
00000200: 2896 6c3d f6a0 343d dfc4 843d c790 c7be
00000210: f2be c23c 2428 263d 8f71 a73d 4a34 433e
00000220: 30d2 7b3d f3f3 13be 8b34 c4bd d80a 7abc
00000230: 7fc7 c3bd ab6b b0bb b8b6 5bbd 980c 22bd
00000240: 2b34 ea3a c377 243e da0e 8f3d 9039 8d3d
00000250: cf87 bd3b 0eb4 4c3d b13d 373e 6947 e9bb
00000260: fa0e 7181 d705 453d a474 933d 6167 2a3e
00000270: 799e e081 9ceb a83d 6300 1a3e 3db9 353e
00000280: 1641 0dbe d426 143e e522 19be 332b ccbd
00000290: 3f74 213e 87b9 3dbc 403d 0f3d 7ff1 57bd
000002a0: bca8 d6bd 551d 9fba ffa2 1b3c 7208 9f3d
000002b0: da84 f83d cee6 533e bc63 6bbe 04b0 fc3d
000002c0: bc17 803d 3f52 db3d a14a 1c3e 31de fbbd
000002d0: e922 a13d 01a3 a53d 520e 663d 408e 973d
000002e0: b0f0 8c3d 380d 183d 8286 75be b03c e5bd
000002f0: eefc 8abc 9f43 133e c50b a9bc 6669 c83d
00000300: 0d3c 9a3d d899 243d 23e2 84bd c8b3 54be
00000310: acee f73d dc5f 073d a0b5 f93c 4b69 ceba
00000320: 74be 83bd 1d42 753d 1e74 e73d bc32 25bd
00000330: 9337 03bd 4115 fcbc 0f8d d8bd 1c9e b4bb
00000340: e976 1c3d 5e7d e83c 1944 f7bd 3839 3fbe
00000350: 45ed 053e 93e1 92bd 2b41 b7bd 5766 2b3e
00000360: c63e 25bc 156b 023d 7562 623d a274 0b3e
00000370: d8ef 0282 a409 823c 1f34 3f3e 389b e63d
00000380: 17d4 c6bd 3519 853d 78f7 60bb 8a42 4b3d
00000390: 83d5 ae3c 0e58 b5bd 4c85 113e b00f b33d
000003a0: e7b5 d73d e1b5 dabc 120a f73d 0862 3abe
000003b0: 5366 2a3e 7c8c 583c ccde adbb bc1f 06bc
000003c0: fd29 cb3d 45ec 45be 6825 78bb b6e9 cf3d
000003d0: 8281 133d 6b62 00be f506 403d c67e 43be
000003e0: 2f45 603e 8d89 babd 08d5 a6bd 530d 993d
000003f0: 7ae6 38be 72d3 443d 8b7b e7bd acd9 1e3d

fc2.weight f4 [128, 256]
0.14751463 0.05177851 0.36083552 -0.08103667 -0.0874912 7.142365e-38 0.07546329 -0.08411978
0.29262984 0.07969173 -0.07285017 -0.33920982 -0.008844399 -0.3063999 0.21569188 -0.073186256
-0.0657388 -0.30353862 3.024099e-05 0.06366683 0.18380558 0.11647554 -0.018231913 -0.10793458
0.27568665 0.06024383 0.11289862 0.40171173 0.19598228 -0.08600127 -0.007370654 -0.0024438577
0.116128065 -0.04177616 -0.15942183 -0.09913738 0.30703035 -0.1369522 -0.11951014 -0.12722349
0.07402704 -0.0058212844 -0.09272023 -0.021584569 -0.21815595 -0.079654366 0.1273968 -0.3570434
0.18904956 0.064835586 0.26860288 0.001604627 0.2934048 -0.0786962 0.09719085 0.06725241
0.1487533 -0.26354507 0.27620062 0.15136181 0.27389118 0.03848844 -0.1245155 0.048023563
0.062076595 -0.1379847 -0.20638134 -0.43158984 0.22529265 0.08152614 0.16058661 -0.051309895
-0.028787361 0.23511581 0.32947788 0.3920284 -0.014535861 -0.020485396 -0.44360864 -0.019711642
0.48936313 0.09865303 0.2949728 -0.06594836 -0.32111645 -0.4147395 -0.20452984 0.29503402
-2.1991471e-37 -0.14024551 0.08285293 0.60015017 -0.17080238 -0.05623443 0.357729 0.07633632
0.23293826 -0.56819 -0.17016278 -0.2107054 0.21332239 -0.096923515 0.25356942 0.012992706
-0.0072676702 -0.22121127 -0.16153008 0.5519749 0.052367095 -0.0946739 0.43080178 0.14608608
0.28030726 0.17954823 0.23088859 -0.14063331 -0.19252881 0.029653145 0.07886486 -0.05838188
0.012552803 0.3302435 -0.05640848 -0.009208588 0.2737754 0.08088622 -2.3339949e-38 0.027836736
0.30228975 -0.044186685 0.21893552 -0.35744694 -0.39474908 -0.18624516 -0.24936599 0.1893374
0.4708262 0.22946152 0.2201177 -0.3265379 -0.040925484 -0.14061041 -0.17184371 0.34790665
-0.0001916771 -0.02525711 0.58771425 0.08677621 0.20318681 -0.1935503 0.21224143 0.23460458
1.0506678e-38 -0.16861635 0.3339675 0.16863187 1.8740361e-37 -0.10016559 0.059340797 -0.12594861
0.009774041 0.33072668 -0.007953314 0.46206906 -0.030861985 -2.8588795e-07 0.18343125 -0.17791495
0.011894009 2.145917e-37 0.039462328 0.48128328 0.19486114 -0.0120380325 0.28914422 0.09775997
-0.076805495 0.06354642 0.18289055 -0.0574186 0.16650717 0.40721723 -0.27338603 0.06448328
0.52619916 -0.035271022 -0.12164653 0.34305266 -0.012766241 0.07457021 0.59295166 -0.08390648
0.6120878 -0.19496712 0.08200812 0.16075978 0.009664754 0.19414027 0.04174402 0.23768578
-0.17882028 -0.042685285 -0.29106918 -0.021140868 0.41553414 -0.0675917 -0.23075965 0.010859975
-0.5492927 0.13065834 0.081308894 -0.08052183 0.07507072 0.4277424 -0.35247943 0.23502944
0.01610066 -0.013277707 0.06049614 -0.28410128 1.0497811e-37 0.28841916 -0.10325075 -0.07540503
0.1549981 -0.03916898 -1.2675866e-05 0.099052355 -0.11338242 0.28844026 0.25184697 0.5305279
-0.19581307 0.06086475 -0.15419605 0.3666249 -0.20014569 -0.12129594 -0.00772863 -0.0003349744
0.57605255 -0.012810107 4.102984e-07 0.07843062 0.4321507 -0.089149214 0.054372422 -0.11951658
-0.16956629 0.26791966 -0.14269918 0.17905962 0.30230567 -0.270484 -0.49445587 0.27574095
00000000: 130e 173e b415 543d 6fbf b83e 8ef6 a5bd
00000010: 962e b3bd 056f c201 7f8c 9a3d fe46 acbd
00000020: 94d3 953e 6b35 a33d 7832 95bd e9ac adbe
00000030: 19e8 10bc 73e0 9cbe 55de 5c3e ade2 95bd
00000040: 10a2 86bd 6a69 9bbe 08ae fd37 c163 823d
00000050: 8837 3c3e ba8a ee3d 185b 95bc ce0c ddbd
00000060: cd26 8d3e 3cc2 763d 6437 e73d 29ad cd3e
00000070: 94af 483e 6f21 b0bd 8785 f1bb 2129 20bb
00000080: 8dd4 ed3d 7b1d 2bbd 7a3f 23be 8a08 cbbd
00000090: 1533 9d3e 333d 0cbe bbc1 f4bd e046 02be
000000a0: 7d9b 973d 79c0 bebb 1be4 bdbd 1fd2 b0bc
000000b0: 4664 5fbe d421 a3bd 4f74 023e 64ce b6be
000000c0: 3596 413e 85c8 843d 5186 893e 5952 d23a
000000d0: 2739 963e 792b a1bd ff0b c73d a2bb 893d
000000e0: c952 183e 61ef 86be 2b6a 8d3e 97fe 1a3e
000000f0: 773b 8c3e 0ea6 1d3d fc01 ffbd 5bb4 443d
00000100: 0744 7e3d dc4b 0dbe a155 53be 58f9 dcbe
00000110: 1eb3 663e 2df7 a63d d170 243e 532a 52bd
00000120: 79d3 ebbc 33c2 703e 53b1 a83e f2b7 c83e
00000130: d227 6ebc fdd0 a7bc ac20 e3be 4f7a a1bc
00000140: ce8d fa3e 9a0a ca3d ad06 973e ef0f 87bd
00000150: 6069 a4be bc58 d4be 4570 51be b30e 973e
00000160: 8caa 9582 859c 0fbe ccae a93d 71a3 193f
00000170: d2e6 2ebe 1356 66bd 4128 b73e 3756 9c3d
00000180: 5e87 6e3e e674 11bf 273f 2ebe 28c3 57be
00000190: 2f71 5a3e d67f c6bd dad3 813e 5cdf 543c
000001a0: a325 eebb 3585 62be 2468 25be 3a4e 0d3f
000001b0: e17e 563d 64e4 c1bd 0d92 dc3e 9797 153e
000001c0: 6f84 8f3e 7edb 373e 0f6e 6c3e 2e02 10be
000001d0: 4626 45be 27eb f23c e683 a13d d721 6fbd
000001e0: 46aa 4d3c ad15 a93e 940c 67bd 9edf 16bc
000001f0: 4a2c 8c3e ada7 a53d 4826 fe80 de09 e43c
00000200: b9c5 9a3e 19fd 34bd a230 603e 4903 b7be
00000210: 8d1c cabe 0db7 3ebe cc59 7fbe aae1 413e
00000220: 2210 f13e f6f7 6a3e 8966 613e fa2f a7be
00000230: 7ba1 27bd 2dfc 0fbe ccf7 2fbe d220 b23e
00000240: eefc 48b9 00e8 cebc 7174 163f bab7 b13d
00000250: 3410 503e 0d32 46be d155 593e 2f3c 703e
00000260: 5868 7200 c4a9 2cbe cafd aa3e d5ad 2c3e
00000270: a114 7f02 9e23 cdbd 560f 733d acf8 00be
00000280: 4d23 203c 0255 a93e 9e4e 02bc 5194 ec3e
00000290: 46d2 fcbc 247c 99b4 67d5 3b3e 562f 36be
000002a0: 17df 423c 260b 9202 40a3 213d c36a f63e
000002b0: ae89 473e 2b3b 45bc b60a 943e 6136 c83d
000002c0: 334c 9dbd a024 823d a947 3b3e c42f 6bbd
000002d0: db80 2a3e c77e d03e 41f9 8bbe cf0f 843d
000002e0: fdb4 063f 5978 10bd d121 f9bd 99a4 af3e
000002f0: 7f29 51bc 44b8 983d aecb 173f 29d7 abbd
00000300: c9b1 1c3f 76a5 47be e0f3 a73d 369e 243e
00000310: eb58 1e3c b5cc 463e c7fb 2a3d e763 733e
00000320: aa1c 37be c4d6 2ebd 0507 95be 9d2f adbc
00000330: e4c0 d43e 846d 8abd 424c 6cbe 09ee 313c
00000340: 729e 0cbf 4dcb 053e 4785 a63d a1e8 a4bd
00000350: adbe 993d 0d01 db3e 2f78 b4be 8fab 703e
00000360: 88e5 833c bd8a 59bc cdca 773d b975 91be
00000370: 88e3 0e02 adab 933e 2175 d3bd f46d 9abd
00000380: d2b7 1e3e a76f 20bd 6eaa 54b7 f6db ca3d
00000390: 0b35 e8bd 71ae 933e 16f2 803e add0 073f
000003a0: 3983 48be 514d 793d 92e5 1dbe 42b6 bb3e
000003b0: fef2 4cbe 016a f8bd 7340 fdbb 819f afb9
000003c0: 2e78 133f 7ce1 51bc fc46 dc34 3ca0 a03d
000003d0: db42 dd3e dd93 b6bd 9eb5 5e3d 1cc5 f4bd
000003e0: c9a2 2dbe c42c 893e bc1f 12be 685b 373e
000003f0: cfc7 9a3e e17c 8abe 5229 fdbe eb2d 8d3e

fc2.bias f4 [128]
-0.0687721 0.10752141 0.23609711 0.05955393 -1.8551859e-37 -1.860902e-37 0.0776649 -0.1247124
0.1500818 0.00078846107 0.23044297 0.023737442 -0.0071452865 0.31057125 0.090279564 0.33636984
0.11735604 -0.049655307 -0.20078377 -0.25623822 0.070873074 0.23246524 0.029667197 -0.09091593
-0.10636365 0.1299017 0.050591204 0.17628022 0.18706776 0.0684654 -0.0010103834 0.22934042
0.031614542 0.052202586 -0.09983682 0.08801107 -0.043679412 0.05110631 0.022104476 0.13751836
0.15919426 0.21629608 0.20505884 0.099182375 0.1227963 0.2077816 -0.23580095 0.17464307
-0.06100085 -0.16473691 -1.0479642e-37 -0.13546182 0.12797605 0.18901224 0.020696837 0.10751101
-0.14457108 -0.12537013 -0.129481 0.09726481 -1.2329386e-37 0.1448214 -0.075014316 -0.049927462
0.23654188 0.16199127 0.06556244 -0.04647882 0.0849065 0.38414717 0.26706287 0.07045388
0.0994196 -0.06222156 0.3350117 0.044115044 0.016720157 -0.043898895 0.11831055 -0.07479896
0.35962763 0.115855716 0.10533632 -0.12788263 -0.2948601 -0.009914118 -0.069558375 0.090526916
0.2198596 -0.11093548 -0.046857964 -0.26383135 0.12627594 -0.2640233 0.028288126 0.15510383
-0.033430457 -0.036482792 0.3894355 0.08261338 0.22433382 -0.14445701 -0.037981935 0.07010388
0.30613592 -0.099475525 0.1617666 0.41941395 -0.042123728 -0.034422293 0.010779272 -0.052518684
-0.028642736 0.09161226 0.13761628 0.029405914 0.087941304 0.16700488 -0.43229717 0.09711295
-0.11968508 0.22416045 0.24938446 -1.0479899e-37 0.3568217 0.047776047 0.36283928 -0.22457922
00000000: 63d8 8cbd 2f34 dc3d 71c3 713e d2ee 733d
00000010: cb83 7c82 f94a 7d82 c60e 9f3d 3769 ffbd
00000020: 0baf 193e bab0 4e3a 3ef9 6b3e 0675 c23c
00000030: 0223 eabb 3203 9f3e 7ee4 b83d ab38 ac3e
00000040: 5d58 f03d 5d63 4bbd 439a 4dbe a831 83be
00000050: e725 913d 5e0b 6e3e 9f08 f33c 2232 babd
00000060: 2fd5 d9bd f404 053e b938 4f3d cd82 343e
00000070: b18e 3f3e 9637 8c3d d76e 84ba 37d8 6a3e
00000080: 407e 013d 61d2 553d 3f77 ccbd 263f b43d
00000090: 2fe9 32bd da54 513d 7214 b53c 9dd1 0c3e
000000a0: d203 233e b87c 5d3e f2fa 513e 2120 cb3d
000000b0: a07c fb3d b3c4 543e ce75 71be a2d5 323e
000000c0: 07dc 79bd cbb0 28be 39a4 0e82 81b6 0abe
000000d0: 270c 033e 6d8c 413e 6a8c a93c bb2e dc3d
000000e0: 710a 14be 0761 00be ab96 04be c632 c73d
000000f0: a4d1 2782 104c 143e 1ba1 99bd bd80 4cbd
00000100: 0938 723e 0ae1 253e 9a45 863d 9360 3ebd
00000110: 76e3 ad3d f0ae c43e 77bc 883e 204a 903d
00000120: 819c cb3d 09dc 7ebd a786 ab3e fab1 343d
00000130: b6f8 883c 54cf 33bd cd4c f23d 3230 99bd
00000140: 1d21 b83e c345 ed3d 92ba d73d aaf3 02be
00000150: e7f7 96be d36e 22bc 9f74 8ebd 2d66 b93d
00000160: e022 613e 2432 e3bd 23ee 3fbd e714 87be
00000170: 7b4e 013e 102e 87be 80bc e73c 8ad3 1e3e
00000180: 60ee 08bd fb6e 15bd 1764 c73e 3431 a93d
00000190: c4b7 653e 8aec 13be f292 1bbd 9f92 8f3d
000001a0: d9bd 9c3e d3b9 cbbd 25a6 253e 6dbd d63e
000001b0: ee89 2cbd 64fe 0cbd 8b9b 303c d51d 57bd
000001c0: 2ca4 eabc 359f bb3d 48eb 0c3e ace4 f03c
000001d0: 921a b43d 5403 2b3e 0e56 ddbe 28e3 c63d
000001e0: 741d f5bd 518a 653e a45e 7f3e 1ea5 0e82
000001f0: 55b1 b63e d1b0 433d 12c6 b93e 18f8 65be

fc3.weight f4 [64, 128]
0.62738746 0.32439163 0.12237788 -0.22896847 -1.6477763e-37 1.8542791e-37 0.41964307 0.6425687
0.5478202 0.6229891 0.32087988 0.43304947 0.53860337 0.26338705 0.37505937 0.25059184
0.40395793 -0.24897754 0.2961026 -0.64419496 0.34771842 -0.38777807 0.25587353 0.05573686
0.5505163 0.41222104 0.3692311 0.46839213 0.27558362 0.44634724 0.55720013 0.3923278
0.2503693 0.3728889 0.32094425 0.4275993 0.5192458 0.29874924 0.3737297 0.608026
0.43287957 0.25853884 0.23147711 0.40524897 0.56248635 0.30364108 -0.4122951 0.30239442
0.42785862 0.2603148 -1.921034e-38 -0.3119683 0.42743105 0.2848705 0.5415675 0.33691326
0.44055253 0.60521525 0.36475307 0.24276152 -3.8984818e-38 0.32092083 0.6641301 0.39259675
0.43644685 -0.42046687 0.3886662 0.23304051 0.38673124 0.46176457 0.27374947 -0.38599
0.3228695 0.7770588 0.33203036 -0.022758069 0.6014575 0.39152366 0.38650888 0.25607085
0.34989765 0.5820165 -0.30711645 0.30580366 -0.47767276 0.42883947 0.526505 0.38746423
-0.49758947 0.62218976 0.40373617 0.27594006 0.20040785 -0.36677244 0.465895 0.34098297
0.23837882 0.74775124 0.33893305 0.26345477 0.30959105 -0.28458363 0.42603663 0.65587676
0.32666522 0.63973135 0.3712401 0.12851733 0.29724914 0.44683835 0.3978803 0.42611682
0.23749955 0.250991 0.2746854 0.40496263 0.69152963 0.28903767 -0.9528203 0.43466
0.6495593 0.30888084 0.38465074 -1.1641179e-37 0.3252883 0.25329348 0.41473466 -0.2415077
0.8605652 -0.37655202 0.38023055 -0.73599494 -3.255555e-39 1.1315272e-37 0.45477825 0.5995108
0.1625219 0.66510004 0.25940484 0.7531203 0.52556705 -0.027347699 0.07177079 0.087413974
0.029944336 -0.7819216 0.1855582 -0.70810455 -0.1404928 -0.75711095 -0.15056445 -0.081314
0.23601635 0.75096625 0.70966864 0.44790846 0.23653194 0.54659337 0.23081224 0.045563653
0.09682136 0.65591985 -0.17487301 0.43963456 0.80394965 0.6711116 -0.13697001 0.55819905
0.30905393 0.007477396 0.14333573 0.59818053 1.2062285 -0.035630696 -0.6223226 0.18503019
0.4202498 -0.04424294 5.161058e-38 -1.0841782 0.41915452 0.23335037 0.3838524 0.06468133
0.45651576 0.6167526 0.32771719 0.277168 -6.2948984e-38 0.077803895 0.8912914 0.5163355
0.01485626 -0.8958698 -0.019460903 -0.15123144 0.05649644 -0.15773506 -0.17980762 -1.0413427
0.12624975 1.0367013 0.036038104 0.24367386 0.34806183 0.23013404 0.076979294 0.042340226
-0.06886588 0.4591781 -1.0623398 0.07962299 -0.4018024 0.38121238 0.34369838 0.25262704
-0.8663741 0.6080806 0.20740832 0.22901766 -0.11960205 -0.23967491 0.68484014 0.08556321
0.47042033 1.0291843 -0.11559489 0.120098 0.23639262 -0.8074732 0.0032610947 1.000618
-0.102337904 0.7889193 -0.013079807 -0.18555662 0.23286982 0.45774978 -0.06487204 0.26986706
-0.1073236 0.35997385 0.029300144 0.7620094 0.58848107 0.3392898 -0.69428587 0.31640092
0.5229913 -0.26692128 -0.07658224 -1.8140072e-38 -0.055890553 1.1265678 -0.11686593 -0.8399274
00000000: 779c 203f a916 a63e 41a1 fa3d b676 6abe
00000010: a048 6082 3264 7c02 75db d63e 627f 243f
00000020: f23d 0c3f 377c 1f3f 5e4a a43e a9b8 dd3e
00000030: e9e1 093f abda 863e c807 c03e 934d 803e
00000040: 93d3 ce3e f8f3 7ebe c39a 973e f6e9 24bf
00000050: 2608 b23e d98a c6be db01 833e 554c 643d
00000060: a3ee 0c3f a30e d33e dc0b bd3e 18d1 ef3e
00000070: 4c19 8d3e a087 e43e aba4 0e3f 30df c83e
00000080: 6830 803e 4beb be3e ce52 a43e 4cee da3e
00000090: 4bed 043f a9f5 983e 8059 bf3e 98a7 1b3f
000000a0: 64a2 dd3e 345f 843e 5608 6d3e cb7c cf3e
000000b0: 1bff 0f3f d876 9b3e 5818 d3be 71d3 9a3e
000000c0: 4910 db3e fb47 853e 9d2e d180 4fba 9fbe
000000d0: 3ed8 da3e 8cda 913e 2ba4 0a3f e57f ac3e
000000e0: 1a90 e13e 63ef 1a3f eac0 ba3e 7a96 783e
000000f0: e840 5481 bc4f a43e 6e04 2a3f 7102 c93e
00000100: f675 df3e 6f47 d7be 42ff c63e 2ca2 6e3e
00000110: a301 c63e 686c ec3e e428 8c3e 7ba0 c5be
00000120: 274f a53e 53ed 463f e2ff a93e 216f babc
00000130: 1ef9 193f ca75 c83e 7ee4 c53e b81b 833e
00000140: c925 b33e 09ff 143f 5e3e 9dbe 4c92 9c3e
00000150: 8691 f4be d990 db3e 08c9 063f b661 c63e
00000160: 0cc4 febe d447 1f3f 82b6 ce3e 0448 8d3e
00000170: b737 4d3e 99c9 bbbe ca89 ee3e 5295 ae3e
00000180: 9419 743e a06c 3f3f a288 ad3e 8be3 863e
00000190: b882 9e3e f2b4 91be 7921 da3e 8ae7 273f
000001a0: aa40 a73e 6fc5 233f 2f13 be3e 0c9a 033e
000001b0: 0a31 983e ffc7 e43e f7b6 cb3e fc2b da3e
000001c0: 1533 733e e481 803e 91a3 8c3e 4357 cf3e
000001d0: 1608 313f bffc 933e 08ec 73bf c18b de3e
000001e0: 8549 263f a125 9e3e f1f0 c43e 9773 1e82
000001f0: 308c a63e afaf 813e 1a58 d43e cb4d 77be
00000200: 004e 5c3f 6dcb c0be 94ad c23e 2a6a 3cbf
00000210: 2a73 2380 f803 1a02 b2d8 e83e 8a79 193f
00000220: 246c 263e ff43 2a3f b6d0 843e 7ecc 403f
00000230: 908b 063f 4808 e0bc 90fc 923d 1906 b33d
00000240: d34d f53c 042c 48bf f802 3e3e 5746 35bf
00000250: 58dd 0fbe 06d2 41bf 912d 1abe f487 a6bd
00000260: 45ae 713e 533f 403f d8ac 353f 4254 e53e
00000270: 6e35 723e 8bed 0b3f 0b5a 6c3e f4a0 3a3d
00000280: 474a c63d 5dea 273f e911 33be c817 e13e
00000290: a5cf 4d3f f8cd 2b3f de41 0cbe 22e6 0e3f
000002a0: 513c 9e3e f204 f53b 9ac6 123e 5c22 193f
000002b0: b265 9a3f 7ef1 11bd 8950 1fbf 8e78 3d3e
000002c0: fb2a d73e 1638 35bd 537f 8c01 5ac6 8abf
000002d0: 6c9b d63e 66f3 6e3e 4d88 c43e a577 843d
000002e0: 6fbc e93e 80e3 1d3f 8cca a73e f7e8 8d3e
000002f0: 0a5d ab81 a657 9f3d ac2b 643f 902e 043f
00000300: ac67 733c b957 65bf 796c 9fbc 6adc 1abe
00000310: d068 673d 4d85 21be 7d1f 38be b84a 85bf
00000320: 9d47 013e a1b2 843f b19c 133d a485 793e
00000330: 2935 b23e 42a8 6b3e 52a7 9d3d f26c 2d3d
00000340: 8e09 8dbd 6419 eb3e c0fa 87bf 6111 a33d
00000350: 0bb9 cdbe 452e c33e 3cf9 af3e 5558 813e
00000360: b1ca 5dbf 2cab 1b3f d962 543e 9b83 6a3e
00000370: ebf1 f4bd 576d 75be af51 2f3f c43b af3d
00000380: efda f03e 50bc 833f 04bd ecbd f1f5 f53d
00000390: e810 723e 90b6 4ebf 17b8 553b 4014 803f
000003a0: 8996 d1bd 9ef6 493f b04c 56bc 8e02 3ebe
000003b0: 6d75 6e3e 2e5e ea3e a2db 84bd 042c 8a3e
000003c0: 7acc dbbd 7e4e b83e db06 f03c 0c13 433f
000003d0: b2a6 163f 65b7 ad3e b8bc 31bf 4dff a13e
000003e0: c2e2 053f e8a9 88be 26d7 9cbd 2487 c580
000003f0: 7eed 64bd 6033 903f 6857 efbd 7b05 57bf

fc3.bias f4 [64]
1.9442847 0.5415087 1.2936814 1.610281 1.9483949 -0.71728766 1.5055931 1.5966327
1.0502781 1.708983 0.94822687 0.377689 1.791374 1.1655486 1.431923 1.6756641
1.9195157 1.9639199 1.971802 1.95425 1.9549967 1.6925701 1.6940664 1.7494217
-0.12961274 1.6998581 -0.56751424 -1.293772 -0.29844013 -0.9955663 1.9837085 1.5909879
1.7460363 -0.7526314 1.7876934 -0.9418518 -1.1213078 -0.7105478 -4.2405747e-38 1.4977434
0.49722275 -1.4661809 0.33248758 -2.4015824e-18 -1.0047604 0.082851015 -0.62514883 -1.1807151
-1.288359 0.21912399 -1.0208393 -1.5141707e-37 -0.007039282 -1.337352 -0.0060316827 -0.6771523
1.5229629 1.7661146 -0.87139416 -1.300293 0.9298379 -0.9113357 -1.3696173 1.9420147
00000000: 52de f83f 50a0 0a3f 5a97 a53f b01d ce3f
00000010: 0165 f93f 2aa0 37bf 46b7 c03f 765e cc3f
00000020: 836f 863f f4bf da3f ffbe 723f 7460 c13e
00000030: be4b e53f b230 953f 4149 b73f 297c d63f
00000040: b1b2 f53f ba61 fb3f 0264 fc3f dd24 fa3f
00000050: 553d fa3f 23a6 d83f 2bd7 d83f 0ded df3f
00000060: 34b9 04be f394 d93f 9d48 11bf 529a a5bf
00000070: 25cd 98be 6fdd 7ebf 29ea fd3f 7ea5 cb3f
00000080: 1e7e df3f 74ac 40bf 23d3 e43f 331d 71bf
00000090: 0487 8fbf 76e6 35bf fce0 6681 0eb6 bf3f
000000a0: fb93 fe3e d1ab bbbf d03b aa3e 9c34 31a2
000000b0: fd9b 80bf cbad a93d c109 20bf ac21 97bf
000000c0: f3e8 a4bf 0a62 603e ddaa 82bf 2619 4e82
000000d0: c7a9 e6bb 5a2e abbf 6ca5 c5bb da59 2dbf
000000e0: 73f0 c23f 0b10 e23f b013 5fbf 0070 a6bf
000000f0: db09 6e3f 4c4d 69bf 9f4f afbf f093 f83f

fc4.weight f4 [4, 64]
-0.5229239 -0.13041778 -0.9354466 -0.6555703 -0.5837183 -0.16599503 -0.54740894 -0.50976217
-1.3735487 -0.87939614 -1.3511859 0.3087756 -0.50995857 -0.33904862 -1.0645685 -0.8233388
-0.4684548 -0.5126561 -0.4714701 -0.9162968 -0.5693329 -0.7559359 -0.28387645 -0.28060302
1.0335822 -0.8071157 0.44545975 1.3144331 0.60481405 0.7551953 -0.8047211 -0.4323829
-0.8122977 1.1713583 -0.7148643 1.1992782 0.8322794 1.6146708 -6.739753e-38 -0.8165647
0.7354001 1.6694428 0.9396882 -2.2646027e-08 1.5108087 0.13816409 0.7673564 0.9600066
1.3006768 0.57681906 0.858492 9.22902e-38 0.8900579 1.5671841 0.0023484377 1.2364224
-0.9729486 -0.7287948 1.3734678 0.86474496 -1.3419813 1.3089466 1.1071007 -0.5916736
-0.64790124 -1.0517554 -0.59576124 -0.58584136 -0.77003706 1.010006 -0.19575642 -0.38018453
-0.115874164 -0.59736294 0.014241289 0.42240494 -0.5247865 -0.65494597 -0.4315161 -0.8534907
-0.861617 -0.8615652 -0.81666946 -0.6084017 -0.6687454 -0.81188494 -0.73925185 -0.7603584
-1.1431504 -0.2725124 0.8070299 1.405449 0.474497 1.5549266 -0.72804606 -0.94506794
-0.7550523 0.6826641 -0.8190568 1.6441035 1.5758587 1.1481551 6.868531e-38 -0.6181238
-1.2298802 0.8899084 -0.2250898 7.017003e-07 1.577485 0.15660472 1.5416529 1.4290311
1.3355681 0.7140974 1.2204978 2.0354316e-38 0.80076355 0.9773892 -0.0050481935 0.12465211
-0.48915577 -0.86448914 1.1903163 0.9575549 -0.33768526 1.2680598 1.0166597 -0.7784671
-0.7677242 -0.08640857 -0.51824385 -0.89371336 -0.6799931 -0.28084493 -0.8573274 -0.8476753
-0.6786202 -0.4479297 -0.9459813 -1.1852207 -0.8542419 -0.4100874 -0.8073151 -0.25530815
-0.82672036 -0.64012295 -0.783365 -0.70491076 -0.81483155 -0.3743206 -0.5473884 -1.0137594
0.37310332 -0.82903236 1.1303915 1.4198964 0.57931346 1.1776112 -0.64579433 -0.7867273
-0.32147893 1.5159945 -0.35225308 0.75012326 0.50350374 1.4712114 2.1832147e-38 -0.6352235
-1.3602089 1.3301708 -0.627418 -1.9459609e-05 0.98309773 0.47640744 0.49628845 1.4981294
1.4375207 1.8823884 0.59267724 1.6271117e-38 0.61853766 1.4052727 -0.0043761646 1.2287774
-0.30112275 -0.4642539 1.4899269 1.5318611 -0.361639 1.350757 1.5098022 -0.761801
-0.709845 -2.127119 -1.3062011 -0.19090576 -0.7934586 1.4297842 -0.4410149 -0.29892895
-0.61528873 -0.94261354 -0.7999288 -0.31228292 -0.93148 -0.4733268 -0.6737418 -0.8303605
-0.43894 -0.6756849 -0.7615345 -0.6843758 -0.792892 -0.36066407 -0.8917328 -0.68357575
1.1446832 -0.50852346 -0.5127005 0.6048711 1.9158121 1.4761522 -0.79774654 -0.19498141
-0.6275411 0.905885 -0.64714503 1.1711826 1.3086172 0.5640427 -5.459284e-38 -0.15099318
0.15299591 1.019363 1.4152299 -9.596807e-07 1.0883561 -1.4336421 1.3300573 1.3475839
1.1827707 -0.45124158 1.2571518 2.6968017e-38 2.6342745 1.0691715 0.00371557 1.8884462
-0.8673511 -0.34353632 1.5460358 0.87656677 -1.4389567 0.8686493 1.2087324 -0.91237533
00000000: 57de 05bf 3d8c 05be 6e79 6fbf 75d3 27bf
00000010: 906e 15bf 9afa 29be fe22 0cbf c67f 02bf
00000020: 72d0 afbf 1b20 61bf a9f3 acbf d617 9e3e
00000030: a58c 02bf c897 adbe c843 88bf 55c6 52bf
00000040: 4fd9 efbe 6e3d 03bf 8764 f1be 6d92 6abf
00000050: cdbf 11bf 0485 41bf 4158 91be 33ab 8fbe
00000060: 6c4c 843f 229f 4ebf 4d13 e43e 583f a83f
00000070: 18d5 1a3f 7b54 413f 3402 4ebf 4b61 ddbe
00000080: bef2 4fbf 12ef 953f 5901 37bf f381 993f
00000090: 4310 553f 88ad ce3f 3979 b781 620a 51bf
000000a0: 2e43 3c3f 4db0 d53f 688f 703f 2487 c2b2
000000b0: 2e62 c13f e37a 0d3e 7871 443f fec2 753f
000000c0: 947c a63f 6aaa 133f 22c6 5b3f e23c fb01
000000d0: d6da 633f 7d99 c83f 3fe8 193b 1743 9e3f
000000e0: 2913 79bf 4c92 3abf cbcd af3f ed5f 5d3f
000000f0: 0bc6 abbf 908b a73f 7ab5 8d3f ec77 17bf
00000100: dbdc 25bf ec9f 86bf cf83 18bf b3f9 15bf
00000110: 2621 45bf e047 813f 5f74 48be 8ca7 c2be
00000120: 6f4f edbd c7ec 18bf 4c54 693c 7645 d83e
00000130: 6858 06bf 8aaa 27bf aeef dcbe 5e7e 5abf
00000140: ef92 5cbf 898f 5cbf 4011 51bf 37c0 1bbf
00000150: e632 2bbf b1d7 4fbf 9c3f 3dbf d9a6 42bf
00000160: c152 92bf bf86 8bbe 8399 4e3f c1e5 b33f
00000170: 45f1 f23e d607 c73f 3a61 3abf f9ef 71bf
00000180: 1c4b 41bf 13c3 2e3f b5ad 51bf fc71 d23f
00000190: bdb5 c93f bff6 923f adfa ba01 5d3d 1ebf
000001a0: b76c 9dbf 09d1 633f f17d 66be 7a5c 3c35
000001b0: 07eb c93f fd5c 203e e254 c53f 7eea b63f
000001c0: e5f3 aa3f 16cf 363f 4639 9c3f 8da3 dd00
000001d0: d7fe 4c3f 2e36 7a3f 516b a5bb 9b49 ff3d
000001e0: a072 fabe 294f 5dbf 495c 983f 5122 753f
000001f0: 15e5 acbe c94f a23f e821 823f 9f49 47bf
00000200: 9389 44bf faf6 b0bd a1ab 04bf 66ca 64bf
00000210: 0714 2ebf e8ca 8fbe cf79 5bbf 4001 59bf
00000220: 0eba 2dbf 0b57 e5be d52b 72bf 50b5 97bf
00000230: 99af 5abf faf6 d1be 34ac 4ebf c0b7 82be
00000240: f2a3 53bf 19df 23bf 9c8a 48bf 0875 34bf
00000250: cd98 50bf f3a6 bfbe a521 0cbf dec2 81bf
00000260: 6607 bf3e 773b 54bf abb0 903f 2abf b53f
00000270: e34d 143f f7bb 963f c752 25bf f666 49bf
00000280: e398 a4be 1c0c c23f 845a b4be 1408 403f
00000290: 9fe5 003f a850 bc3f 25bb ed00 029e 22bf
000002a0: 531b aebf 0943 aa3f 779e 20bf 313d a3b7
000002b0: 4bac 7b3f adeb f33e 8519 fe3e b4c2 bf3f
000002c0: ae00 b83f 1af2 f03f b2b9 173f 412d b100
000002d0: 7c58 1e3f fadf b33f ee65 8fbb 9448 9d3f
000002e0: c32c 9abe b0b2 edbe edb5 be3f 0614 c43f
000002f0: bf28 b9be 9be5 ac3f 3341 c13f 6405 43bf
00000300: 67b8 35bf b822 08c0 9931 a7bf cd7c 43be
00000310: 1a20 4bbf 2b03 b73f b4cc e1be 370d 99be
00000320: 9083 1dbf 1f4f 71bf 22c8 4cbf 8ce3 9fbe
00000330: 7975 6ebf e457 f2be 587a 2cbf 8192 54bf
00000340: bebc e0be b0f9 2cbf edf3 42bf 4133 2fbf
00000350: f8fa 4abf f6a8 b8be 9a48 64bf d2fe 2ebf
00000360: fb84 923f 982e 02bf 5740 03bf d5d8 1a3f
00000370: 5539 f53f 8ef2 bc3f 1e39 4cbf 35a9 47be
00000380: 89a6 20bf 14e8 673f 4cab 25bf 50e9 953f
00000390: c580 a73f 1a65 103f a89d 9481 f59d 1abe
000003a0: f6aa 1c3e 7d7a 823f 4126 b53f 61ce 80b5
000003b0: 414f 8b3f 9681 b7bf 513f aa3f a17d ac3f
000003c0: 0865 973f 2309 e7be 5aea a03f eed3 1201
000003d0: f497 2840 9dda 883f ec80 733b 9bb8 f13f
000003e0: b90a 5ebf fee3 afbe 80e4 c53f ae66 603f
000003f0: bc2f b8bf cd5f 5e3f beb7 9a3f 6e91 69bf

fc4.bias f4 [4]
-0.7376084 -0.9756508 -1.1183679 -0.7666909
00000000: e7d3 3cbf 40c4 79bf ae26 8fbf db45 44bf

exp_avg f4 [256, 8]
0.0005285468 -8.001678e-05 -0.00012914622 -8.2362836e-05 0.00015731377 6.924334e-05 0.00017933479 0.00023784886
-0.00013653171 -0.0012946613 9.399796e-05 0.0010796175 -7.294573e-05 0.0004525453 0.000663282 -0.00064296066
0.0005383631 0.0040644044 0.009405031 -0.0003185677 -2.1620197e-05 0.00049987907 -0.00034615627 0.0013011527
-0.0012715742 0.0010193937 0.0054892832 0.00015224323 0.0006311557 4.1365867e-05 -0.00021174415 -0.0010003246
1.0473276e-05 -0.0013905354 -0.0014411842 -0.00069124106 -9.199194e-05 0.0005098387 -0.0004498381 -2.8149947e-05
-3.84e-43 4.67e-43 1e-45 -4.15e-43 -5.86e-43 1e-43 -3.5e-43 1.089e-42
0.000722772 -0.0027448297 0.001064062 -0.00010318875 -0.00042419907 0.00014860337 0.0008758328 -0.0028110908
-0.0006572119 -0.0013247012 -0.00057457265 -0.00030254322 -0.00053060515 0.00020508097 0.00081954966 -0.0019759336
-0.0009653647 -0.0012915374 0.0009188067 0.00061886385 -1.1219719e-05 0.00020925887 0.00056961575 -0.0016618895
0.0008661092 0.0012979099 0.002898951 0.00055161864 3.0853695e-05 -4.9388076e-05 0.00017714202 0.0007215374
-0.0065213293 -0.002163822 -0.01770318 -0.0036198164 0.0003972723 -7.215475e-05 -0.0017396527 -0.00067521585
0.0035429029 -0.0039232587 0.0016846724 0.003730071 -0.00044894454 -9.261546e-06 0.001353239 -0.00039177312
0.00048696235 -0.0023321647 -0.0020625251 -0.0026740069 -0.00039285305 0.0003603796 0.00012689948 0.00021334019
0.00059936696 0.00023492104 -0.004276801 0.00032487407 0.00012626921 0.00017685867 0.00047580432 0.00084400346
-0.00086532155 0.001673481 -0.007600776 -0.00054981926 0.0001695259 0.000109215274 -2.6179037e-05 0.0019622142
0.0004797721 -0.0013571176 0.0058926824 7.3683754e-05 -0.00027973947 -0.0001731039 0.0013725954 -0.0015986707
0.0022413288 -0.0017555701 0.007944473 0.0017936965 -0.00038756756 6.9954825e-05 0.0011410122 -0.0012440863
-0.0013811644 -0.0015897042 -0.0021414524 0.0005703873 0.00010607168 -0.00011029642 0.00049229205 -0.0016629884
-4.8136275e-08 -4.3292996e-08 -4.9356707e-08 -1.8216982e-08 -3.0731115e-10 5.8344147e-09 -3.1528054e-09 -4.96813e-08
0.0009897465 -0.0009732342 0.0019555679 0.0008816083 0.00012869584 -0.00014278913 0.00013629107 -0.0009650274
-0.0014002905 0.00027641855 -0.0019961307 -0.003365611 -7.902822e-05 0.00042330683 -0.001275502 6.5602864e-05
0.0003228765 0.0018427705 2.2207316e-05 0.001700448 -1.6168618e-05 -0.000105654064 0.00015227724 0.00083153375
0.00031325233 -0.00036752102 0.0008281517 8.067102e-06 -5.0883922e-05 4.0054634e-05 0.00015932995 -0.00036795324
-0.0013662446 0.00036322826 0.00027795395 -9.954666e-05 0.00047513252 0.0001578363 -0.0005114572 -0.0011123851
0.000134926 -9.73873e-05 -0.0009195903 -0.0004570048 -0.0003170059 0.00013514515 7.987188e-05 -0.00017297809
0.00075451325 -0.0010215002 5.37994e-05 -0.0025740995 -0.0003347511 0.00062222296 -0.0001613747 -0.00023329446
-0.0005490735 0.0012921573 0.0011838939 0.00010564248 0.0001921808 0.00021821022 0.0003999273 0.00051672885
-0.000526008 -0.00031821543 -0.0003736212 0.0005900508 0.00021342422 0.00018934665 0.00074595615 -0.0005995792
0.0026587332 0.003135354 0.0054232427 0.0011765305 0.00023222725 -0.00019413148 0.00044033074 0.0024564704
-0.0014424472 -0.0027501632 -0.0046019396 -0.0024561859 -8.3779065e-05 -0.00024847465 -0.0004026196 -0.0014159939
0.00051839993 0.0010822747 0.0003687719 0.00033374026 -0.00043180076 -1.8219453e-05 0.00020794857 0.00057779124
5.897767e-08 4.9216677e-08 -8.17178e-08 -4.4238465e-08 1.7598249e-07 -1.4452273e-07 -1.2254888e-07 6.8162e-08
00000000: 2d8e 0a3a afce a7b8 6d6b 07b9 36ba acb8
00000010: 98f4 2439 bc36 9138 d10b 3c39 1167 7939
00000020: f429 0fb9 a0b1 a9ba c520 c538 f481 8d3a
00000030: 71fa 98b8 9a43 ed39 1ae0 2d3a 5c8c 28ba
00000040: f020 0d3a b22e 853b 8f17 1a3c 6f05 a7b9
00000050: 055d b5b7 510a 033a 4f7c b5b9 718b aa3a
00000060: f3aa a6ba 2d9d 853a 72df b33b 7ba3 1f39
00000070: 2474 253a 4380 2d38 a307 5eb9 531d 83ba
00000080: 61b6 2f37 a042 b6ba 1ee6 bcba 6734 35ba
00000090: cceb c0b8 b2a6 053a 3fd8 ebb9 8d23 ecb7
000000a0: 1201 0080 4d01 0000 0100 0000 2801 0080
000000b0: a201 0080 4700 0000 fa00 0080 0903 0000
000000c0: 6878 3d3a 9ae2 33bb ff77 8b3a 0a67 d8b8
000000d0: 0967 deb9 6ad2 1b39 2598 653a 473a 38bb
000000e0: be48 2cba 99a1 adba eb9e 16ba aa9e 9eb9
000000f0: 4f18 0bba 010b 5739 0cd7 563a aa7e 01bb
00000100: 8710 7dba ce48 a9ba 13dc 703a 403b 223a
00000110: 543c 3cb7 806c 5b39 4452 153a c2d3 d9ba
00000120: 9b0b 633a a11e aa3a 54fc 3d3b 809a 103a
00000130: e768 0138 0b26 4fb8 33bf 3939 8e25 3d3a
00000140: e0b0 d5bb e9ce 0dbb 4206 91bc 713a 6dbb
00000150: fc48 d039 c951 97b8 0f05 e4ba f800 31ba
00000160: 0c30 683b ae8e 80bb 3ad0 dc3a 3574 743b
00000170: 5160 ebb9 0a62 1bb7 2a5f b13a e666 cdb9
00000180: fb4e ff39 3bd7 18bb 6e2b 07bb 643e 2fbb
00000190: d8f7 cdb9 55f1 bc39 5210 0539 12b4 5f39
000001a0: d61e 1d3a 2355 7639 6824 8cbb dc53 aa39
000001b0: 2267 0439 2373 3939 6075 f939 1d40 5d3a
000001c0: bfd6 62ba b458 db3a ee0f f9bb bf21 10ba
000001d0: c3c2 3139 810a e538 0e9b dbb7 7e98 003b
000001e0: ec89 fb39 4fe1 b1ba 6717 c13b aa86 9a38
000001f0: ffa9 92b9 3983 35b9 a9e8 b33a 7d8a d1ba
00000200: 42e3 123b 281b e6ba 8929 023c 781a eb3a
00000210: 7032 cbb9 b6b4 9238 048e 953a 9c10 a3ba
00000220: 3008 b5ba 9f5d d0ba 9c57 0cbb 0b86 153a
00000230: cd72 de38 f14e e7b8 290d 013a a2f8 d9ba
00000240: 65be 4eb3 27f1 39b3 46fc 53b3 917b 9cb2
00000250: 33f2 a8af 0e78 c831 bda8 58b1 2b61 55b3
00000260: 62ba 813a a420 7fba fc28 003b bb1b 673a
00000270: 87f2 0639 aab9 15b9 5be9 0e39 e4f9 7cba
00000280: f489 b7ba 45ec 9039 84d1 02bb 9591 5cbb
00000290: f4bb a5b8 48ef dd39 bf2e a7ba 4594 8938
000002a0: c047 a939 1e89 f13a d949 ba37 91e1 de3a
000002b0: d8a1 87b7 9892 ddb8 9cac 1f39 49fb 593a
000002c0: 043c a439 d6af c0b9 5218 593a f057 0737
000002d0: 326c 55b8 5600 2838 cf11 2739 d9e9 c0b9
000002e0: 9013 b3ba ac6f be39 59ba 9139 b5c3 d0b8
000002f0: 351b f939 dc80 2539 5013 06ba 73cd 91ba
00000300: ec7a 0d39 693c ccb8 a910 71ba 259a efb9
00000310: d033 a6b9 c0b5 0d39 e480 a738 7461 35b9
00000320: 87ca 453a dce3 85ba aaa6 6138 39b2 28bb
00000330: 8881 afb9 ad1c 233a b136 29b9 81a0 74b9
00000340: b3ef 0fba 9b5d a93a e32c 9b3a 608c dd38
00000350: 2484 4939 5ccf 6439 55ad d139 1675 073a
00000360: cde3 09ba 27d6 a6b9 97e2 c3b9 a4ad 1a3a
00000370: a1ca 5f39 5b8b 4639 458c 433a 142d 1dba
00000380: 243e 2e3b 837a 4d3b 75b5 b13b d035 9a3a
00000390: 0782 7339 c68f 4bb9 31dc e639 bcfc 203b
000003a0: 7f10 bdba 153c 34bb decb 96bb f6f7 20bb
000003b0: 8bb2 afb8 b445 82b9 b016 d3b9 df98 b9ba
000003c0: 3be5 073a 1ddb 8d3a ba57 c139 dcf9 ae39
000003d0: 5163 e2b9 fad5 98b7 c50c 5a39 ea76 173a
000003e0: a24e 7d33 4f62 5333 d67c afb3 b500 3eb3
000003f0: b3f5 3c34 1b2e 1bb4 fb95 03b4 7560 9233

exp_avg_sq f4 [256, 8]
6.986599e-06 1.0958966e-05 0.00014372404 4.8433793e-07 2.2546051e-07 3.0206903e-07 2.2776985e-06 1.5359039e-05
2.0113192e-05 1.4236979e-05 2.927295e-05 4.872956e-05 8.126436e-07 1.0974445e-06 7.5729267e-06 2.5671196e-05
0.00031257828 0.00037449793 0.0010089349 0.00034196288 8.422089e-06 7.426606e-06 6.385925e-05 0.00020808482
5.2107378e-05 0.000113610724 0.0007058497 5.7004913e-06 1.6271564e-06 5.5892565e-06 3.0042907e-05 3.6395693e-05
1.6169399e-05 3.242686e-05 3.345058e-05 3.3756307e-05 1.48813e-06 1.3493656e-06 1.1141e-05 1.6416914e-05
7e-43 7e-43 7e-43 7e-43 7e-43 7e-43 7e-43 7e-43
0.00012844814 6.565736e-05 1.1669669e-05 7.3525676e-05 2.073642e-06 5.147014e-07 1.0309591e-05 5.565739e-05
0.0001741196 0.0001031658 0.0001850657 0.00033118637 4.6714536e-06 1.190518e-06 2.3734176e-05 9.149783e-05
2.7399192e-05 7.0564633e-06 3.515321e-05 3.940596e-06 3.1862623e-07 3.2772115e-07 2.6028667e-06 3.1923235e-05
5.2925803e-05 4.1334526e-05 0.00044237365 5.1701536e-06 1.167691e-06 1.0291069e-06 9.110368e-06 2.4026485e-05
0.00021437695 0.00018775748 0.0016330387 0.00011065324 2.9588539e-06 2.6713517e-06 2.2255115e-05 9.049527e-05
0.0011443251 0.0008889319 0.003641855 0.0009529035 6.111188e-06 7.130496e-06 4.9751332e-05 0.00055766816
7.705032e-05 8.280047e-05 0.0003801669 0.00016323515 5.029819e-06 3.2973828e-06 3.340007e-05 6.615306e-05
3.0831412e-05 4.368927e-05 0.00076787156 0.00016592145 4.722404e-06 1.3375321e-06 2.4277033e-05 2.798253e-05
2.474871e-05 2.3869323e-05 0.00027326768 2.6642763e-05 5.921963e-07 1.202004e-06 7.32071e-06 3.722741e-05
0.00017478048 0.00010517789 0.00024685863 0.0002464182 3.087012e-06 1.5772913e-06 1.9148581e-05 8.934635e-05
8.695808e-05 5.8772843e-05 0.00075670064 3.1705942e-05 1.9277886e-06 1.6605136e-06 1.4097229e-05 4.7648195e-05
2.9684517e-05 6.824763e-05 0.00034271798 1.8535213e-05 7.9393425e-07 1.903041e-06 1.1141698e-05 2.5413288e-05
4.6484178e-11 3.4055606e-11 3.2477923e-10 1.2569473e-11 9.019551e-13 1.9404643e-12 1.6225696e-11 4.337044e-11
9.029784e-05 6.876082e-05 0.00020341972 1.1648836e-05 2.6249282e-07 1.6342972e-07 1.7324841e-06 6.9090136e-05
8.1668295e-05 0.00013483624 0.00011710408 0.00011591401 1.0592356e-06 1.6667553e-06 1.071561e-05 6.832622e-05
6.0494687e-05 3.5929024e-05 0.00026046 6.3228494e-05 5.439709e-07 7.9693086e-07 5.3686745e-06 3.2322576e-05
9.1435174e-07 1.22774e-06 6.3194584e-06 1.4930619e-08 1.8502451e-08 8.046996e-08 3.980041e-07 1.2277632e-06
3.583097e-05 7.267891e-05 0.0005906145 5.0327835e-06 1.2817769e-06 3.0933702e-06 1.8352093e-05 2.4502044e-05
4.477188e-05 1.117109e-05 5.049456e-05 1.2321559e-05 5.8658907e-07 4.4658614e-07 4.0119457e-06 4.8657643e-05
0.00020993258 0.00012038926 9.800194e-05 0.00032365049 1.9593117e-06 9.75728e-07 1.1598586e-05 8.974132e-05
4.2065367e-05 3.5099103e-05 0.00029081586 3.3304475e-06 1.3348115e-06 1.940027e-06 1.3316177e-05 3.5160207e-05
2.8677137e-05 4.28776e-05 0.0006262915 1.1109998e-05 1.176027e-06 3.3311578e-06 1.796927e-05 5.745482e-05
0.00024914008 0.00013967391 0.0013406806 9.471772e-05 5.1044805e-07 1.0005302e-06 5.5223613e-06 0.00011859988
6.030443e-05 5.165281e-05 0.00028251437 3.610597e-05 1.5324042e-06 1.7811927e-06 1.3629563e-05 4.1609226e-05
6.676183e-05 7.603821e-05 0.00030770322 1.0514116e-05 1.1277168e-06 3.5702333e-06 1.872143e-05 4.556337e-05
1.3814745e-08 1.0931614e-08 5.2181143e-08 4.8707878e-09 3.2190028e-10 2.1102617e-10 2.5309437e-09 9.773e-09
00000000: 6e6e ea36 67dc 3737 a1b4 1639 7303 0235
00000010: 1d16 7234 0d2c a234 90da 1836 49d7 8037
00000020: c0b8 a837 5cdb 6e37 2e8f f537 f762 4c38
00000030: 7124 5a35 e84b 9335 f21a fe36 7958 d737
00000040: 8ce1 a339 4358 c439 3d3e 843a 7b49 b339
00000050: 994c 0d37 0f32 f936 2cec 8538 5831 5a39
00000060: df8d 5a38 4b42 ee38 c608 393a d946 bf36
00000070: ab64 da35 598b bb36 a704 fc37 94a7 1838
00000080: 85a3 8737 1302 0838 494d 0c38 8f95 0d38
00000090: c2bb c735 d91b b535 3bea 3a37 0eb7 8937
000000a0: f401 0000 f401 0000 f401 0000 f401 0000
000000b0: f401 0000 f401 0000 f401 0000 f401 0000
000000c0: 09b0 0639 87b1 8938 d9c8 4337 cc31 9a38
000000d0: e628 0b36 032a 0a35 5bf7 2c37 ab71 6938
000000e0: e093 3639 b85a d838 320e 4239 15a3 ad39
000000f0: 7bbf 9c36 e3c9 9f35 c118 c737 86e2 bf38
00000100: 51d7 e537 8fc6 ec36 7971 1338 7639 8436
00000110: a80f ab34 a7f1 af34 e9ac 2e36 50e5 0538
00000120: a6fc 5d38 9c5e 2d38 63ee e739 487b ad36
00000130: 8fb9 9c35 d81f 8a35 bcd8 1837 7c8c c937
00000140: 60ca 6039 c4e0 4439 b00b d63a 820e e838
00000150: b990 4636 7945 3336 7fb0 ba37 47c8 bd38
00000160: 2efd 953a 3607 693a 30ac 6e3b 45cc 793a
00000170: b50e cd36 7f42 ef36 16ac 5038 7a30 123a
00000180: 1396 a138 2aa5 ad38 2351 c739 1a2a 2b39
00000190: d1c5 a836 9b48 5d36 0d17 0c38 a7bb 8a38
000001a0: fa50 0138 ff3e 3738 fd4a 493a 33fb 2d39
000001b0: 2475 9e36 4185 b335 88a6 cb37 07bc ea37
000001c0: 739b cf37 fb3a c837 5e45 8f39 e67e df37
000001d0: 6bf7 1e35 8b54 a135 6ca4 f536 a124 1c38
000001e0: 4745 3739 f392 dc38 ce6c 8139 b131 8139
000001f0: 762a 4f36 51b3 d335 44a1 a037 755f bb38
00000200: 445d b638 dc82 7638 525d 463a fffb 0438
00000210: 285f 0136 d0de de35 2383 6c37 dcd9 4738
00000220: 0403 f937 2b20 8f38 d4ae b339 117c 9b37
00000230: bf1e 5535 fe6b ff35 3bed 3a37 9f2e d537
00000240: 8870 4c2e 34c7 152e 9d8c b22f e01f 5d2d
00000250: b7e0 7d2b 4c8c 082c 05b9 8e2d c6be 3e2e
00000260: 495e bd38 af33 9038 114d 5539 5f6f 4337
00000270: bdec 8c34 387b 2f34 b387 e835 7ce4 9038
00000280: 5545 ab38 d462 0d39 c695 f538 dc16 f338
00000290: 0f2b 8e35 47b5 df35 32c7 3337 5c4a 8f38
000002a0: adbb 7d38 7fb2 1638 598e 8839 8a99 8438
000002b0: 6505 1235 acec 5535 9024 b436 1a92 0738
000002c0: c671 7535 d3c8 a435 bc0b d436 c740 8032
000002d0: 52ef 9e32 d4ce ac33 44ad d534 9fc9 a435
000002e0: 3649 1638 316b 9838 78d3 1a3a 48df a836
000002f0: 8509 ac35 b297 4f36 d2f2 9937 bd89 cd37
00000300: 71c9 3b38 776b 3b37 1fca 5338 b1b8 4e37
00000310: 1876 1d35 55c2 ef34 5a9e 8636 bf15 4c38
00000320: 5921 5c39 7e79 fc38 6486 cd38 a2af a939
00000330: b87c 0336 c2f5 8235 8c97 4237 8133 bc38
00000340: 586f 3038 6037 1338 a578 9839 a780 5f36
00000350: c627 b335 6931 0236 8b68 5f37 fc78 1338
00000360: af8f f037 79d7 3338 b62d 243a 1465 3a37
00000370: fbd7 9d35 db8c 5f36 b7bc 9637 a5fb 7038
00000380: 049f 8239 6e75 1239 c7b9 af3a 30a3 c638
00000390: b905 0935 f549 8635 b94c b936 d3b8 f838
000003a0: 63ef 7c38 c8a5 5838 701e 9439 7d70 1738
000003b0: 02ad cd35 5111 ef35 87aa 6437 9185 2e38
000003c0: 7c02 8c38 b476 9f38 3a53 a139 c965 3037
000003d0: 0e5c 9735 2498 6f36 f70b 9d37 4c1b 3f38
000003e0: e455 6d32 bfcd 3b32 c61d 6033 e75b a731
000003f0: 70f7 b02f 9606 682f d5ec 2d31 1ce6 2732
